node {
  name: "Placeholder"
  op: "Placeholder"
  attr {
    key: "_output_shapes"
    value {
      list {
        shape {
          dim {
            size: -1
          }
          dim {
            size: 50
          }
          dim {
            size: 6
          }
        }
      }
    }
  }
  attr {
    key: "dtype"
    value {
      type: DT_FLOAT
    }
  }
  attr {
    key: "shape"
    value {
      shape {
        dim {
          size: -1
        }
        dim {
          size: 50
        }
        dim {
          size: 6
        }
      }
    }
  }
}
node {
  name: "Placeholder_1"
  op: "Placeholder"
  attr {
    key: "_output_shapes"
    value {
      list {
        shape {
          dim {
            size: -1
          }
        }
      }
    }
  }
  attr {
    key: "dtype"
    value {
      type: DT_INT32
    }
  }
  attr {
    key: "shape"
    value {
      shape {
        dim {
          size: -1
        }
      }
    }
  }
}
node {
  name: "global_step/Initializer/zeros"
  op: "Const"
  attr {
    key: "_class"
    value {
      list {
        s: "loc:@global_step"
      }
    }
  }
  attr {
    key: "_output_shapes"
    value {
      list {
        shape {
        }
      }
    }
  }
  attr {
    key: "dtype"
    value {
      type: DT_INT64
    }
  }
  attr {
    key: "value"
    value {
      tensor {
        dtype: DT_INT64
        tensor_shape {
        }
        int64_val: 0
      }
    }
  }
}
node {
  name: "global_step"
  op: "VariableV2"
  attr {
    key: "_class"
    value {
      list {
        s: "loc:@global_step"
      }
    }
  }
  attr {
    key: "_output_shapes"
    value {
      list {
        shape {
        }
      }
    }
  }
  attr {
    key: "container"
    value {
      s: ""
    }
  }
  attr {
    key: "dtype"
    value {
      type: DT_INT64
    }
  }
  attr {
    key: "shape"
    value {
      shape {
      }
    }
  }
  attr {
    key: "shared_name"
    value {
      s: ""
    }
  }
}
node {
  name: "global_step/Assign"
  op: "Assign"
  input: "global_step"
  input: "global_step/Initializer/zeros"
  attr {
    key: "T"
    value {
      type: DT_INT64
    }
  }
  attr {
    key: "_class"
    value {
      list {
        s: "loc:@global_step"
      }
    }
  }
  attr {
    key: "_output_shapes"
    value {
      list {
        shape {
        }
      }
    }
  }
  attr {
    key: "use_locking"
    value {
      b: true
    }
  }
  attr {
    key: "validate_shape"
    value {
      b: true
    }
  }
}
node {
  name: "global_step/read"
  op: "Identity"
  input: "global_step"
  attr {
    key: "T"
    value {
      type: DT_INT64
    }
  }
  attr {
    key: "_class"
    value {
      list {
        s: "loc:@global_step"
      }
    }
  }
  attr {
    key: "_output_shapes"
    value {
      list {
        shape {
        }
      }
    }
  }
}
node {
  name: "lstm_layer/rnn/Rank"
  op: "Const"
  attr {
    key: "_output_shapes"
    value {
      list {
        shape {
        }
      }
    }
  }
  attr {
    key: "dtype"
    value {
      type: DT_INT32
    }
  }
  attr {
    key: "value"
    value {
      tensor {
        dtype: DT_INT32
        tensor_shape {
        }
        int_val: 3
      }
    }
  }
}
node {
  name: "lstm_layer/rnn/range/start"
  op: "Const"
  attr {
    key: "_output_shapes"
    value {
      list {
        shape {
        }
      }
    }
  }
  attr {
    key: "dtype"
    value {
      type: DT_INT32
    }
  }
  attr {
    key: "value"
    value {
      tensor {
        dtype: DT_INT32
        tensor_shape {
        }
        int_val: 2
      }
    }
  }
}
node {
  name: "lstm_layer/rnn/range/delta"
  op: "Const"
  attr {
    key: "_output_shapes"
    value {
      list {
        shape {
        }
      }
    }
  }
  attr {
    key: "dtype"
    value {
      type: DT_INT32
    }
  }
  attr {
    key: "value"
    value {
      tensor {
        dtype: DT_INT32
        tensor_shape {
        }
        int_val: 1
      }
    }
  }
}
node {
  name: "lstm_layer/rnn/range"
  op: "Range"
  input: "lstm_layer/rnn/range/start"
  input: "lstm_layer/rnn/Rank"
  input: "lstm_layer/rnn/range/delta"
  attr {
    key: "Tidx"
    value {
      type: DT_INT32
    }
  }
  attr {
    key: "_output_shapes"
    value {
      list {
        shape {
          dim {
            size: 1
          }
        }
      }
    }
  }
}
node {
  name: "lstm_layer/rnn/concat/values_0"
  op: "Const"
  attr {
    key: "_output_shapes"
    value {
      list {
        shape {
          dim {
            size: 2
          }
        }
      }
    }
  }
  attr {
    key: "dtype"
    value {
      type: DT_INT32
    }
  }
  attr {
    key: "value"
    value {
      tensor {
        dtype: DT_INT32
        tensor_shape {
          dim {
            size: 2
          }
        }
        tensor_content: "\001\000\000\000\000\000\000\000"
      }
    }
  }
}
node {
  name: "lstm_layer/rnn/concat/axis"
  op: "Const"
  attr {
    key: "_output_shapes"
    value {
      list {
        shape {
        }
      }
    }
  }
  attr {
    key: "dtype"
    value {
      type: DT_INT32
    }
  }
  attr {
    key: "value"
    value {
      tensor {
        dtype: DT_INT32
        tensor_shape {
        }
        int_val: 0
      }
    }
  }
}
node {
  name: "lstm_layer/rnn/concat"
  op: "ConcatV2"
  input: "lstm_layer/rnn/concat/values_0"
  input: "lstm_layer/rnn/range"
  input: "lstm_layer/rnn/concat/axis"
  attr {
    key: "N"
    value {
      i: 2
    }
  }
  attr {
    key: "T"
    value {
      type: DT_INT32
    }
  }
  attr {
    key: "Tidx"
    value {
      type: DT_INT32
    }
  }
  attr {
    key: "_output_shapes"
    value {
      list {
        shape {
          dim {
            size: 3
          }
        }
      }
    }
  }
}
node {
  name: "lstm_layer/rnn/transpose"
  op: "Transpose"
  input: "Placeholder"
  input: "lstm_layer/rnn/concat"
  attr {
    key: "T"
    value {
      type: DT_FLOAT
    }
  }
  attr {
    key: "Tperm"
    value {
      type: DT_INT32
    }
  }
  attr {
    key: "_output_shapes"
    value {
      list {
        shape {
          dim {
            size: 50
          }
          dim {
            size: -1
          }
          dim {
            size: 6
          }
        }
      }
    }
  }
}
node {
  name: "lstm_layer/rnn/Shape"
  op: "Shape"
  input: "lstm_layer/rnn/transpose"
  attr {
    key: "T"
    value {
      type: DT_FLOAT
    }
  }
  attr {
    key: "_output_shapes"
    value {
      list {
        shape {
          dim {
            size: 3
          }
        }
      }
    }
  }
  attr {
    key: "out_type"
    value {
      type: DT_INT32
    }
  }
}
node {
  name: "lstm_layer/rnn/strided_slice/stack"
  op: "Const"
  attr {
    key: "_output_shapes"
    value {
      list {
        shape {
          dim {
            size: 1
          }
        }
      }
    }
  }
  attr {
    key: "dtype"
    value {
      type: DT_INT32
    }
  }
  attr {
    key: "value"
    value {
      tensor {
        dtype: DT_INT32
        tensor_shape {
          dim {
            size: 1
          }
        }
        int_val: 1
      }
    }
  }
}
node {
  name: "lstm_layer/rnn/strided_slice/stack_1"
  op: "Const"
  attr {
    key: "_output_shapes"
    value {
      list {
        shape {
          dim {
            size: 1
          }
        }
      }
    }
  }
  attr {
    key: "dtype"
    value {
      type: DT_INT32
    }
  }
  attr {
    key: "value"
    value {
      tensor {
        dtype: DT_INT32
        tensor_shape {
          dim {
            size: 1
          }
        }
        int_val: 2
      }
    }
  }
}
node {
  name: "lstm_layer/rnn/strided_slice/stack_2"
  op: "Const"
  attr {
    key: "_output_shapes"
    value {
      list {
        shape {
          dim {
            size: 1
          }
        }
      }
    }
  }
  attr {
    key: "dtype"
    value {
      type: DT_INT32
    }
  }
  attr {
    key: "value"
    value {
      tensor {
        dtype: DT_INT32
        tensor_shape {
          dim {
            size: 1
          }
        }
        int_val: 1
      }
    }
  }
}
node {
  name: "lstm_layer/rnn/strided_slice"
  op: "StridedSlice"
  input: "lstm_layer/rnn/Shape"
  input: "lstm_layer/rnn/strided_slice/stack"
  input: "lstm_layer/rnn/strided_slice/stack_1"
  input: "lstm_layer/rnn/strided_slice/stack_2"
  attr {
    key: "Index"
    value {
      type: DT_INT32
    }
  }
  attr {
    key: "T"
    value {
      type: DT_INT32
    }
  }
  attr {
    key: "_output_shapes"
    value {
      list {
        shape {
        }
      }
    }
  }
  attr {
    key: "begin_mask"
    value {
      i: 0
    }
  }
  attr {
    key: "ellipsis_mask"
    value {
      i: 0
    }
  }
  attr {
    key: "end_mask"
    value {
      i: 0
    }
  }
  attr {
    key: "new_axis_mask"
    value {
      i: 0
    }
  }
  attr {
    key: "shrink_axis_mask"
    value {
      i: 1
    }
  }
}
node {
  name: "lstm_layer/rnn/MultiRNNCellZeroState/GRUCellZeroState/ExpandDims/dim"
  op: "Const"
  attr {
    key: "_output_shapes"
    value {
      list {
        shape {
        }
      }
    }
  }
  attr {
    key: "dtype"
    value {
      type: DT_INT32
    }
  }
  attr {
    key: "value"
    value {
      tensor {
        dtype: DT_INT32
        tensor_shape {
        }
        int_val: 0
      }
    }
  }
}
node {
  name: "lstm_layer/rnn/MultiRNNCellZeroState/GRUCellZeroState/ExpandDims"
  op: "ExpandDims"
  input: "lstm_layer/rnn/strided_slice"
  input: "lstm_layer/rnn/MultiRNNCellZeroState/GRUCellZeroState/ExpandDims/dim"
  attr {
    key: "T"
    value {
      type: DT_INT32
    }
  }
  attr {
    key: "Tdim"
    value {
      type: DT_INT32
    }
  }
  attr {
    key: "_output_shapes"
    value {
      list {
        shape {
          dim {
            size: 1
          }
        }
      }
    }
  }
}
node {
  name: "lstm_layer/rnn/MultiRNNCellZeroState/GRUCellZeroState/Const"
  op: "Const"
  attr {
    key: "_output_shapes"
    value {
      list {
        shape {
          dim {
            size: 1
          }
        }
      }
    }
  }
  attr {
    key: "dtype"
    value {
      type: DT_INT32
    }
  }
  attr {
    key: "value"
    value {
      tensor {
        dtype: DT_INT32
        tensor_shape {
          dim {
            size: 1
          }
        }
        int_val: 128
      }
    }
  }
}
node {
  name: "lstm_layer/rnn/MultiRNNCellZeroState/GRUCellZeroState/concat/axis"
  op: "Const"
  attr {
    key: "_output_shapes"
    value {
      list {
        shape {
        }
      }
    }
  }
  attr {
    key: "dtype"
    value {
      type: DT_INT32
    }
  }
  attr {
    key: "value"
    value {
      tensor {
        dtype: DT_INT32
        tensor_shape {
        }
        int_val: 0
      }
    }
  }
}
node {
  name: "lstm_layer/rnn/MultiRNNCellZeroState/GRUCellZeroState/concat"
  op: "ConcatV2"
  input: "lstm_layer/rnn/MultiRNNCellZeroState/GRUCellZeroState/ExpandDims"
  input: "lstm_layer/rnn/MultiRNNCellZeroState/GRUCellZeroState/Const"
  input: "lstm_layer/rnn/MultiRNNCellZeroState/GRUCellZeroState/concat/axis"
  attr {
    key: "N"
    value {
      i: 2
    }
  }
  attr {
    key: "T"
    value {
      type: DT_INT32
    }
  }
  attr {
    key: "Tidx"
    value {
      type: DT_INT32
    }
  }
  attr {
    key: "_output_shapes"
    value {
      list {
        shape {
          dim {
            size: 2
          }
        }
      }
    }
  }
}
node {
  name: "lstm_layer/rnn/MultiRNNCellZeroState/GRUCellZeroState/zeros/Const"
  op: "Const"
  attr {
    key: "_output_shapes"
    value {
      list {
        shape {
        }
      }
    }
  }
  attr {
    key: "dtype"
    value {
      type: DT_FLOAT
    }
  }
  attr {
    key: "value"
    value {
      tensor {
        dtype: DT_FLOAT
        tensor_shape {
        }
        float_val: 0.0
      }
    }
  }
}
node {
  name: "lstm_layer/rnn/MultiRNNCellZeroState/GRUCellZeroState/zeros"
  op: "Fill"
  input: "lstm_layer/rnn/MultiRNNCellZeroState/GRUCellZeroState/concat"
  input: "lstm_layer/rnn/MultiRNNCellZeroState/GRUCellZeroState/zeros/Const"
  attr {
    key: "T"
    value {
      type: DT_FLOAT
    }
  }
  attr {
    key: "_output_shapes"
    value {
      list {
        shape {
          dim {
            size: -1
          }
          dim {
            size: 128
          }
        }
      }
    }
  }
  attr {
    key: "index_type"
    value {
      type: DT_INT32
    }
  }
}
node {
  name: "lstm_layer/rnn/MultiRNNCellZeroState/GRUCellZeroState/ExpandDims_1/dim"
  op: "Const"
  attr {
    key: "_output_shapes"
    value {
      list {
        shape {
        }
      }
    }
  }
  attr {
    key: "dtype"
    value {
      type: DT_INT32
    }
  }
  attr {
    key: "value"
    value {
      tensor {
        dtype: DT_INT32
        tensor_shape {
        }
        int_val: 0
      }
    }
  }
}
node {
  name: "lstm_layer/rnn/MultiRNNCellZeroState/GRUCellZeroState/ExpandDims_1"
  op: "ExpandDims"
  input: "lstm_layer/rnn/strided_slice"
  input: "lstm_layer/rnn/MultiRNNCellZeroState/GRUCellZeroState/ExpandDims_1/dim"
  attr {
    key: "T"
    value {
      type: DT_INT32
    }
  }
  attr {
    key: "Tdim"
    value {
      type: DT_INT32
    }
  }
  attr {
    key: "_output_shapes"
    value {
      list {
        shape {
          dim {
            size: 1
          }
        }
      }
    }
  }
}
node {
  name: "lstm_layer/rnn/MultiRNNCellZeroState/GRUCellZeroState/Const_1"
  op: "Const"
  attr {
    key: "_output_shapes"
    value {
      list {
        shape {
          dim {
            size: 1
          }
        }
      }
    }
  }
  attr {
    key: "dtype"
    value {
      type: DT_INT32
    }
  }
  attr {
    key: "value"
    value {
      tensor {
        dtype: DT_INT32
        tensor_shape {
          dim {
            size: 1
          }
        }
        int_val: 128
      }
    }
  }
}
node {
  name: "lstm_layer/rnn/Shape_1"
  op: "Shape"
  input: "lstm_layer/rnn/transpose"
  attr {
    key: "T"
    value {
      type: DT_FLOAT
    }
  }
  attr {
    key: "_output_shapes"
    value {
      list {
        shape {
          dim {
            size: 3
          }
        }
      }
    }
  }
  attr {
    key: "out_type"
    value {
      type: DT_INT32
    }
  }
}
node {
  name: "lstm_layer/rnn/strided_slice_1/stack"
  op: "Const"
  attr {
    key: "_output_shapes"
    value {
      list {
        shape {
          dim {
            size: 1
          }
        }
      }
    }
  }
  attr {
    key: "dtype"
    value {
      type: DT_INT32
    }
  }
  attr {
    key: "value"
    value {
      tensor {
        dtype: DT_INT32
        tensor_shape {
          dim {
            size: 1
          }
        }
        int_val: 0
      }
    }
  }
}
node {
  name: "lstm_layer/rnn/strided_slice_1/stack_1"
  op: "Const"
  attr {
    key: "_output_shapes"
    value {
      list {
        shape {
          dim {
            size: 1
          }
        }
      }
    }
  }
  attr {
    key: "dtype"
    value {
      type: DT_INT32
    }
  }
  attr {
    key: "value"
    value {
      tensor {
        dtype: DT_INT32
        tensor_shape {
          dim {
            size: 1
          }
        }
        int_val: 1
      }
    }
  }
}
node {
  name: "lstm_layer/rnn/strided_slice_1/stack_2"
  op: "Const"
  attr {
    key: "_output_shapes"
    value {
      list {
        shape {
          dim {
            size: 1
          }
        }
      }
    }
  }
  attr {
    key: "dtype"
    value {
      type: DT_INT32
    }
  }
  attr {
    key: "value"
    value {
      tensor {
        dtype: DT_INT32
        tensor_shape {
          dim {
            size: 1
          }
        }
        int_val: 1
      }
    }
  }
}
node {
  name: "lstm_layer/rnn/strided_slice_1"
  op: "StridedSlice"
  input: "lstm_layer/rnn/Shape_1"
  input: "lstm_layer/rnn/strided_slice_1/stack"
  input: "lstm_layer/rnn/strided_slice_1/stack_1"
  input: "lstm_layer/rnn/strided_slice_1/stack_2"
  attr {
    key: "Index"
    value {
      type: DT_INT32
    }
  }
  attr {
    key: "T"
    value {
      type: DT_INT32
    }
  }
  attr {
    key: "_output_shapes"
    value {
      list {
        shape {
        }
      }
    }
  }
  attr {
    key: "begin_mask"
    value {
      i: 0
    }
  }
  attr {
    key: "ellipsis_mask"
    value {
      i: 0
    }
  }
  attr {
    key: "end_mask"
    value {
      i: 0
    }
  }
  attr {
    key: "new_axis_mask"
    value {
      i: 0
    }
  }
  attr {
    key: "shrink_axis_mask"
    value {
      i: 1
    }
  }
}
node {
  name: "lstm_layer/rnn/Shape_2"
  op: "Shape"
  input: "lstm_layer/rnn/transpose"
  attr {
    key: "T"
    value {
      type: DT_FLOAT
    }
  }
  attr {
    key: "_output_shapes"
    value {
      list {
        shape {
          dim {
            size: 3
          }
        }
      }
    }
  }
  attr {
    key: "out_type"
    value {
      type: DT_INT32
    }
  }
}
node {
  name: "lstm_layer/rnn/strided_slice_2/stack"
  op: "Const"
  attr {
    key: "_output_shapes"
    value {
      list {
        shape {
          dim {
            size: 1
          }
        }
      }
    }
  }
  attr {
    key: "dtype"
    value {
      type: DT_INT32
    }
  }
  attr {
    key: "value"
    value {
      tensor {
        dtype: DT_INT32
        tensor_shape {
          dim {
            size: 1
          }
        }
        int_val: 1
      }
    }
  }
}
node {
  name: "lstm_layer/rnn/strided_slice_2/stack_1"
  op: "Const"
  attr {
    key: "_output_shapes"
    value {
      list {
        shape {
          dim {
            size: 1
          }
        }
      }
    }
  }
  attr {
    key: "dtype"
    value {
      type: DT_INT32
    }
  }
  attr {
    key: "value"
    value {
      tensor {
        dtype: DT_INT32
        tensor_shape {
          dim {
            size: 1
          }
        }
        int_val: 2
      }
    }
  }
}
node {
  name: "lstm_layer/rnn/strided_slice_2/stack_2"
  op: "Const"
  attr {
    key: "_output_shapes"
    value {
      list {
        shape {
          dim {
            size: 1
          }
        }
      }
    }
  }
  attr {
    key: "dtype"
    value {
      type: DT_INT32
    }
  }
  attr {
    key: "value"
    value {
      tensor {
        dtype: DT_INT32
        tensor_shape {
          dim {
            size: 1
          }
        }
        int_val: 1
      }
    }
  }
}
node {
  name: "lstm_layer/rnn/strided_slice_2"
  op: "StridedSlice"
  input: "lstm_layer/rnn/Shape_2"
  input: "lstm_layer/rnn/strided_slice_2/stack"
  input: "lstm_layer/rnn/strided_slice_2/stack_1"
  input: "lstm_layer/rnn/strided_slice_2/stack_2"
  attr {
    key: "Index"
    value {
      type: DT_INT32
    }
  }
  attr {
    key: "T"
    value {
      type: DT_INT32
    }
  }
  attr {
    key: "_output_shapes"
    value {
      list {
        shape {
        }
      }
    }
  }
  attr {
    key: "begin_mask"
    value {
      i: 0
    }
  }
  attr {
    key: "ellipsis_mask"
    value {
      i: 0
    }
  }
  attr {
    key: "end_mask"
    value {
      i: 0
    }
  }
  attr {
    key: "new_axis_mask"
    value {
      i: 0
    }
  }
  attr {
    key: "shrink_axis_mask"
    value {
      i: 1
    }
  }
}
node {
  name: "lstm_layer/rnn/ExpandDims/dim"
  op: "Const"
  attr {
    key: "_output_shapes"
    value {
      list {
        shape {
        }
      }
    }
  }
  attr {
    key: "dtype"
    value {
      type: DT_INT32
    }
  }
  attr {
    key: "value"
    value {
      tensor {
        dtype: DT_INT32
        tensor_shape {
        }
        int_val: 0
      }
    }
  }
}
node {
  name: "lstm_layer/rnn/ExpandDims"
  op: "ExpandDims"
  input: "lstm_layer/rnn/strided_slice_2"
  input: "lstm_layer/rnn/ExpandDims/dim"
  attr {
    key: "T"
    value {
      type: DT_INT32
    }
  }
  attr {
    key: "Tdim"
    value {
      type: DT_INT32
    }
  }
  attr {
    key: "_output_shapes"
    value {
      list {
        shape {
          dim {
            size: 1
          }
        }
      }
    }
  }
}
node {
  name: "lstm_layer/rnn/Const"
  op: "Const"
  attr {
    key: "_output_shapes"
    value {
      list {
        shape {
          dim {
            size: 1
          }
        }
      }
    }
  }
  attr {
    key: "dtype"
    value {
      type: DT_INT32
    }
  }
  attr {
    key: "value"
    value {
      tensor {
        dtype: DT_INT32
        tensor_shape {
          dim {
            size: 1
          }
        }
        int_val: 128
      }
    }
  }
}
node {
  name: "lstm_layer/rnn/concat_1/axis"
  op: "Const"
  attr {
    key: "_output_shapes"
    value {
      list {
        shape {
        }
      }
    }
  }
  attr {
    key: "dtype"
    value {
      type: DT_INT32
    }
  }
  attr {
    key: "value"
    value {
      tensor {
        dtype: DT_INT32
        tensor_shape {
        }
        int_val: 0
      }
    }
  }
}
node {
  name: "lstm_layer/rnn/concat_1"
  op: "ConcatV2"
  input: "lstm_layer/rnn/ExpandDims"
  input: "lstm_layer/rnn/Const"
  input: "lstm_layer/rnn/concat_1/axis"
  attr {
    key: "N"
    value {
      i: 2
    }
  }
  attr {
    key: "T"
    value {
      type: DT_INT32
    }
  }
  attr {
    key: "Tidx"
    value {
      type: DT_INT32
    }
  }
  attr {
    key: "_output_shapes"
    value {
      list {
        shape {
          dim {
            size: 2
          }
        }
      }
    }
  }
}
node {
  name: "lstm_layer/rnn/zeros/Const"
  op: "Const"
  attr {
    key: "_output_shapes"
    value {
      list {
        shape {
        }
      }
    }
  }
  attr {
    key: "dtype"
    value {
      type: DT_FLOAT
    }
  }
  attr {
    key: "value"
    value {
      tensor {
        dtype: DT_FLOAT
        tensor_shape {
        }
        float_val: 0.0
      }
    }
  }
}
node {
  name: "lstm_layer/rnn/zeros"
  op: "Fill"
  input: "lstm_layer/rnn/concat_1"
  input: "lstm_layer/rnn/zeros/Const"
  attr {
    key: "T"
    value {
      type: DT_FLOAT
    }
  }
  attr {
    key: "_output_shapes"
    value {
      list {
        shape {
          dim {
            size: -1
          }
          dim {
            size: 128
          }
        }
      }
    }
  }
  attr {
    key: "index_type"
    value {
      type: DT_INT32
    }
  }
}
node {
  name: "lstm_layer/rnn/time"
  op: "Const"
  attr {
    key: "_output_shapes"
    value {
      list {
        shape {
        }
      }
    }
  }
  attr {
    key: "dtype"
    value {
      type: DT_INT32
    }
  }
  attr {
    key: "value"
    value {
      tensor {
        dtype: DT_INT32
        tensor_shape {
        }
        int_val: 0
      }
    }
  }
}
node {
  name: "lstm_layer/rnn/TensorArray"
  op: "TensorArrayV3"
  input: "lstm_layer/rnn/strided_slice_1"
  attr {
    key: "_output_shapes"
    value {
      list {
        shape {
          dim {
            size: 2
          }
        }
        shape {
        }
      }
    }
  }
  attr {
    key: "clear_after_read"
    value {
      b: true
    }
  }
  attr {
    key: "dtype"
    value {
      type: DT_FLOAT
    }
  }
  attr {
    key: "dynamic_size"
    value {
      b: false
    }
  }
  attr {
    key: "element_shape"
    value {
      shape {
        dim {
          size: -1
        }
        dim {
          size: 128
        }
      }
    }
  }
  attr {
    key: "identical_element_shapes"
    value {
      b: true
    }
  }
  attr {
    key: "tensor_array_name"
    value {
      s: "lstm_layer/rnn/dynamic_rnn/output_0"
    }
  }
}
node {
  name: "lstm_layer/rnn/TensorArray_1"
  op: "TensorArrayV3"
  input: "lstm_layer/rnn/strided_slice_1"
  attr {
    key: "_output_shapes"
    value {
      list {
        shape {
          dim {
            size: 2
          }
        }
        shape {
        }
      }
    }
  }
  attr {
    key: "clear_after_read"
    value {
      b: true
    }
  }
  attr {
    key: "dtype"
    value {
      type: DT_FLOAT
    }
  }
  attr {
    key: "dynamic_size"
    value {
      b: false
    }
  }
  attr {
    key: "element_shape"
    value {
      shape {
        dim {
          size: -1
        }
        dim {
          size: 6
        }
      }
    }
  }
  attr {
    key: "identical_element_shapes"
    value {
      b: true
    }
  }
  attr {
    key: "tensor_array_name"
    value {
      s: "lstm_layer/rnn/dynamic_rnn/input_0"
    }
  }
}
node {
  name: "lstm_layer/rnn/TensorArrayUnstack/Shape"
  op: "Shape"
  input: "lstm_layer/rnn/transpose"
  attr {
    key: "T"
    value {
      type: DT_FLOAT
    }
  }
  attr {
    key: "_output_shapes"
    value {
      list {
        shape {
          dim {
            size: 3
          }
        }
      }
    }
  }
  attr {
    key: "out_type"
    value {
      type: DT_INT32
    }
  }
}
node {
  name: "lstm_layer/rnn/TensorArrayUnstack/strided_slice/stack"
  op: "Const"
  attr {
    key: "_output_shapes"
    value {
      list {
        shape {
          dim {
            size: 1
          }
        }
      }
    }
  }
  attr {
    key: "dtype"
    value {
      type: DT_INT32
    }
  }
  attr {
    key: "value"
    value {
      tensor {
        dtype: DT_INT32
        tensor_shape {
          dim {
            size: 1
          }
        }
        int_val: 0
      }
    }
  }
}
node {
  name: "lstm_layer/rnn/TensorArrayUnstack/strided_slice/stack_1"
  op: "Const"
  attr {
    key: "_output_shapes"
    value {
      list {
        shape {
          dim {
            size: 1
          }
        }
      }
    }
  }
  attr {
    key: "dtype"
    value {
      type: DT_INT32
    }
  }
  attr {
    key: "value"
    value {
      tensor {
        dtype: DT_INT32
        tensor_shape {
          dim {
            size: 1
          }
        }
        int_val: 1
      }
    }
  }
}
node {
  name: "lstm_layer/rnn/TensorArrayUnstack/strided_slice/stack_2"
  op: "Const"
  attr {
    key: "_output_shapes"
    value {
      list {
        shape {
          dim {
            size: 1
          }
        }
      }
    }
  }
  attr {
    key: "dtype"
    value {
      type: DT_INT32
    }
  }
  attr {
    key: "value"
    value {
      tensor {
        dtype: DT_INT32
        tensor_shape {
          dim {
            size: 1
          }
        }
        int_val: 1
      }
    }
  }
}
node {
  name: "lstm_layer/rnn/TensorArrayUnstack/strided_slice"
  op: "StridedSlice"
  input: "lstm_layer/rnn/TensorArrayUnstack/Shape"
  input: "lstm_layer/rnn/TensorArrayUnstack/strided_slice/stack"
  input: "lstm_layer/rnn/TensorArrayUnstack/strided_slice/stack_1"
  input: "lstm_layer/rnn/TensorArrayUnstack/strided_slice/stack_2"
  attr {
    key: "Index"
    value {
      type: DT_INT32
    }
  }
  attr {
    key: "T"
    value {
      type: DT_INT32
    }
  }
  attr {
    key: "_output_shapes"
    value {
      list {
        shape {
        }
      }
    }
  }
  attr {
    key: "begin_mask"
    value {
      i: 0
    }
  }
  attr {
    key: "ellipsis_mask"
    value {
      i: 0
    }
  }
  attr {
    key: "end_mask"
    value {
      i: 0
    }
  }
  attr {
    key: "new_axis_mask"
    value {
      i: 0
    }
  }
  attr {
    key: "shrink_axis_mask"
    value {
      i: 1
    }
  }
}
node {
  name: "lstm_layer/rnn/TensorArrayUnstack/range/start"
  op: "Const"
  attr {
    key: "_output_shapes"
    value {
      list {
        shape {
        }
      }
    }
  }
  attr {
    key: "dtype"
    value {
      type: DT_INT32
    }
  }
  attr {
    key: "value"
    value {
      tensor {
        dtype: DT_INT32
        tensor_shape {
        }
        int_val: 0
      }
    }
  }
}
node {
  name: "lstm_layer/rnn/TensorArrayUnstack/range/delta"
  op: "Const"
  attr {
    key: "_output_shapes"
    value {
      list {
        shape {
        }
      }
    }
  }
  attr {
    key: "dtype"
    value {
      type: DT_INT32
    }
  }
  attr {
    key: "value"
    value {
      tensor {
        dtype: DT_INT32
        tensor_shape {
        }
        int_val: 1
      }
    }
  }
}
node {
  name: "lstm_layer/rnn/TensorArrayUnstack/range"
  op: "Range"
  input: "lstm_layer/rnn/TensorArrayUnstack/range/start"
  input: "lstm_layer/rnn/TensorArrayUnstack/strided_slice"
  input: "lstm_layer/rnn/TensorArrayUnstack/range/delta"
  attr {
    key: "Tidx"
    value {
      type: DT_INT32
    }
  }
  attr {
    key: "_output_shapes"
    value {
      list {
        shape {
          dim {
            size: -1
          }
        }
      }
    }
  }
}
node {
  name: "lstm_layer/rnn/TensorArrayUnstack/TensorArrayScatter/TensorArrayScatterV3"
  op: "TensorArrayScatterV3"
  input: "lstm_layer/rnn/TensorArray_1"
  input: "lstm_layer/rnn/TensorArrayUnstack/range"
  input: "lstm_layer/rnn/transpose"
  input: "lstm_layer/rnn/TensorArray_1:1"
  attr {
    key: "T"
    value {
      type: DT_FLOAT
    }
  }
  attr {
    key: "_class"
    value {
      list {
        s: "loc:@lstm_layer/rnn/transpose"
      }
    }
  }
  attr {
    key: "_output_shapes"
    value {
      list {
        shape {
        }
      }
    }
  }
}
node {
  name: "lstm_layer/rnn/Maximum/x"
  op: "Const"
  attr {
    key: "_output_shapes"
    value {
      list {
        shape {
        }
      }
    }
  }
  attr {
    key: "dtype"
    value {
      type: DT_INT32
    }
  }
  attr {
    key: "value"
    value {
      tensor {
        dtype: DT_INT32
        tensor_shape {
        }
        int_val: 1
      }
    }
  }
}
node {
  name: "lstm_layer/rnn/Maximum"
  op: "Maximum"
  input: "lstm_layer/rnn/Maximum/x"
  input: "lstm_layer/rnn/strided_slice_1"
  attr {
    key: "T"
    value {
      type: DT_INT32
    }
  }
  attr {
    key: "_output_shapes"
    value {
      list {
        shape {
        }
      }
    }
  }
}
node {
  name: "lstm_layer/rnn/Minimum"
  op: "Minimum"
  input: "lstm_layer/rnn/strided_slice_1"
  input: "lstm_layer/rnn/Maximum"
  attr {
    key: "T"
    value {
      type: DT_INT32
    }
  }
  attr {
    key: "_output_shapes"
    value {
      list {
        shape {
        }
      }
    }
  }
}
node {
  name: "lstm_layer/rnn/while/iteration_counter"
  op: "Const"
  attr {
    key: "_output_shapes"
    value {
      list {
        shape {
        }
      }
    }
  }
  attr {
    key: "dtype"
    value {
      type: DT_INT32
    }
  }
  attr {
    key: "value"
    value {
      tensor {
        dtype: DT_INT32
        tensor_shape {
        }
        int_val: 0
      }
    }
  }
}
node {
  name: "lstm_layer/rnn/while/Enter"
  op: "Enter"
  input: "lstm_layer/rnn/while/iteration_counter"
  attr {
    key: "T"
    value {
      type: DT_INT32
    }
  }
  attr {
    key: "_output_shapes"
    value {
      list {
        shape {
        }
      }
    }
  }
  attr {
    key: "frame_name"
    value {
      s: "lstm_layer/rnn/while/while_context"
    }
  }
  attr {
    key: "is_constant"
    value {
      b: false
    }
  }
  attr {
    key: "parallel_iterations"
    value {
      i: 32
    }
  }
}
node {
  name: "lstm_layer/rnn/while/Enter_1"
  op: "Enter"
  input: "lstm_layer/rnn/time"
  attr {
    key: "T"
    value {
      type: DT_INT32
    }
  }
  attr {
    key: "_output_shapes"
    value {
      list {
        shape {
        }
      }
    }
  }
  attr {
    key: "frame_name"
    value {
      s: "lstm_layer/rnn/while/while_context"
    }
  }
  attr {
    key: "is_constant"
    value {
      b: false
    }
  }
  attr {
    key: "parallel_iterations"
    value {
      i: 32
    }
  }
}
node {
  name: "lstm_layer/rnn/while/Enter_2"
  op: "Enter"
  input: "lstm_layer/rnn/TensorArray:1"
  attr {
    key: "T"
    value {
      type: DT_FLOAT
    }
  }
  attr {
    key: "_output_shapes"
    value {
      list {
        shape {
        }
      }
    }
  }
  attr {
    key: "frame_name"
    value {
      s: "lstm_layer/rnn/while/while_context"
    }
  }
  attr {
    key: "is_constant"
    value {
      b: false
    }
  }
  attr {
    key: "parallel_iterations"
    value {
      i: 32
    }
  }
}
node {
  name: "lstm_layer/rnn/while/Enter_3"
  op: "Enter"
  input: "lstm_layer/rnn/MultiRNNCellZeroState/GRUCellZeroState/zeros"
  attr {
    key: "T"
    value {
      type: DT_FLOAT
    }
  }
  attr {
    key: "_output_shapes"
    value {
      list {
        shape {
          dim {
            size: -1
          }
          dim {
            size: 128
          }
        }
      }
    }
  }
  attr {
    key: "frame_name"
    value {
      s: "lstm_layer/rnn/while/while_context"
    }
  }
  attr {
    key: "is_constant"
    value {
      b: false
    }
  }
  attr {
    key: "parallel_iterations"
    value {
      i: 32
    }
  }
}
node {
  name: "lstm_layer/rnn/while/Merge"
  op: "Merge"
  input: "lstm_layer/rnn/while/Enter"
  input: "lstm_layer/rnn/while/NextIteration"
  attr {
    key: "N"
    value {
      i: 2
    }
  }
  attr {
    key: "T"
    value {
      type: DT_INT32
    }
  }
  attr {
    key: "_output_shapes"
    value {
      list {
        shape {
        }
        shape {
        }
      }
    }
  }
}
node {
  name: "lstm_layer/rnn/while/Merge_1"
  op: "Merge"
  input: "lstm_layer/rnn/while/Enter_1"
  input: "lstm_layer/rnn/while/NextIteration_1"
  attr {
    key: "N"
    value {
      i: 2
    }
  }
  attr {
    key: "T"
    value {
      type: DT_INT32
    }
  }
  attr {
    key: "_output_shapes"
    value {
      list {
        shape {
        }
        shape {
        }
      }
    }
  }
}
node {
  name: "lstm_layer/rnn/while/Merge_2"
  op: "Merge"
  input: "lstm_layer/rnn/while/Enter_2"
  input: "lstm_layer/rnn/while/NextIteration_2"
  attr {
    key: "N"
    value {
      i: 2
    }
  }
  attr {
    key: "T"
    value {
      type: DT_FLOAT
    }
  }
  attr {
    key: "_output_shapes"
    value {
      list {
        shape {
        }
        shape {
        }
      }
    }
  }
}
node {
  name: "lstm_layer/rnn/while/Merge_3"
  op: "Merge"
  input: "lstm_layer/rnn/while/Enter_3"
  input: "lstm_layer/rnn/while/NextIteration_3"
  attr {
    key: "N"
    value {
      i: 2
    }
  }
  attr {
    key: "T"
    value {
      type: DT_FLOAT
    }
  }
  attr {
    key: "_output_shapes"
    value {
      list {
        shape {
          dim {
            size: -1
          }
          dim {
            size: 128
          }
        }
        shape {
        }
      }
    }
  }
}
node {
  name: "lstm_layer/rnn/while/Less"
  op: "Less"
  input: "lstm_layer/rnn/while/Merge"
  input: "lstm_layer/rnn/while/Less/Enter"
  attr {
    key: "T"
    value {
      type: DT_INT32
    }
  }
  attr {
    key: "_output_shapes"
    value {
      list {
        shape {
        }
      }
    }
  }
}
node {
  name: "lstm_layer/rnn/while/Less/Enter"
  op: "Enter"
  input: "lstm_layer/rnn/strided_slice_1"
  attr {
    key: "T"
    value {
      type: DT_INT32
    }
  }
  attr {
    key: "_output_shapes"
    value {
      list {
        shape {
        }
      }
    }
  }
  attr {
    key: "frame_name"
    value {
      s: "lstm_layer/rnn/while/while_context"
    }
  }
  attr {
    key: "is_constant"
    value {
      b: true
    }
  }
  attr {
    key: "parallel_iterations"
    value {
      i: 32
    }
  }
}
node {
  name: "lstm_layer/rnn/while/Less_1"
  op: "Less"
  input: "lstm_layer/rnn/while/Merge_1"
  input: "lstm_layer/rnn/while/Less_1/Enter"
  attr {
    key: "T"
    value {
      type: DT_INT32
    }
  }
  attr {
    key: "_output_shapes"
    value {
      list {
        shape {
        }
      }
    }
  }
}
node {
  name: "lstm_layer/rnn/while/Less_1/Enter"
  op: "Enter"
  input: "lstm_layer/rnn/Minimum"
  attr {
    key: "T"
    value {
      type: DT_INT32
    }
  }
  attr {
    key: "_output_shapes"
    value {
      list {
        shape {
        }
      }
    }
  }
  attr {
    key: "frame_name"
    value {
      s: "lstm_layer/rnn/while/while_context"
    }
  }
  attr {
    key: "is_constant"
    value {
      b: true
    }
  }
  attr {
    key: "parallel_iterations"
    value {
      i: 32
    }
  }
}
node {
  name: "lstm_layer/rnn/while/LogicalAnd"
  op: "LogicalAnd"
  input: "lstm_layer/rnn/while/Less"
  input: "lstm_layer/rnn/while/Less_1"
  attr {
    key: "_output_shapes"
    value {
      list {
        shape {
        }
      }
    }
  }
}
node {
  name: "lstm_layer/rnn/while/LoopCond"
  op: "LoopCond"
  input: "lstm_layer/rnn/while/LogicalAnd"
  attr {
    key: "_output_shapes"
    value {
      list {
        shape {
        }
      }
    }
  }
}
node {
  name: "lstm_layer/rnn/while/Switch"
  op: "Switch"
  input: "lstm_layer/rnn/while/Merge"
  input: "lstm_layer/rnn/while/LoopCond"
  attr {
    key: "T"
    value {
      type: DT_INT32
    }
  }
  attr {
    key: "_class"
    value {
      list {
        s: "loc:@lstm_layer/rnn/while/Merge"
      }
    }
  }
  attr {
    key: "_output_shapes"
    value {
      list {
        shape {
        }
        shape {
        }
      }
    }
  }
}
node {
  name: "lstm_layer/rnn/while/Switch_1"
  op: "Switch"
  input: "lstm_layer/rnn/while/Merge_1"
  input: "lstm_layer/rnn/while/LoopCond"
  attr {
    key: "T"
    value {
      type: DT_INT32
    }
  }
  attr {
    key: "_class"
    value {
      list {
        s: "loc:@lstm_layer/rnn/while/Merge_1"
      }
    }
  }
  attr {
    key: "_output_shapes"
    value {
      list {
        shape {
        }
        shape {
        }
      }
    }
  }
}
node {
  name: "lstm_layer/rnn/while/Switch_2"
  op: "Switch"
  input: "lstm_layer/rnn/while/Merge_2"
  input: "lstm_layer/rnn/while/LoopCond"
  attr {
    key: "T"
    value {
      type: DT_FLOAT
    }
  }
  attr {
    key: "_class"
    value {
      list {
        s: "loc:@lstm_layer/rnn/while/Merge_2"
      }
    }
  }
  attr {
    key: "_output_shapes"
    value {
      list {
        shape {
        }
        shape {
        }
      }
    }
  }
}
node {
  name: "lstm_layer/rnn/while/Switch_3"
  op: "Switch"
  input: "lstm_layer/rnn/while/Merge_3"
  input: "lstm_layer/rnn/while/LoopCond"
  attr {
    key: "T"
    value {
      type: DT_FLOAT
    }
  }
  attr {
    key: "_class"
    value {
      list {
        s: "loc:@lstm_layer/rnn/while/Merge_3"
      }
    }
  }
  attr {
    key: "_output_shapes"
    value {
      list {
        shape {
          dim {
            size: -1
          }
          dim {
            size: 128
          }
        }
        shape {
          dim {
            size: -1
          }
          dim {
            size: 128
          }
        }
      }
    }
  }
}
node {
  name: "lstm_layer/rnn/while/Identity"
  op: "Identity"
  input: "lstm_layer/rnn/while/Switch:1"
  attr {
    key: "T"
    value {
      type: DT_INT32
    }
  }
  attr {
    key: "_output_shapes"
    value {
      list {
        shape {
        }
      }
    }
  }
}
node {
  name: "lstm_layer/rnn/while/Identity_1"
  op: "Identity"
  input: "lstm_layer/rnn/while/Switch_1:1"
  attr {
    key: "T"
    value {
      type: DT_INT32
    }
  }
  attr {
    key: "_output_shapes"
    value {
      list {
        shape {
        }
      }
    }
  }
}
node {
  name: "lstm_layer/rnn/while/Identity_2"
  op: "Identity"
  input: "lstm_layer/rnn/while/Switch_2:1"
  attr {
    key: "T"
    value {
      type: DT_FLOAT
    }
  }
  attr {
    key: "_output_shapes"
    value {
      list {
        shape {
        }
      }
    }
  }
}
node {
  name: "lstm_layer/rnn/while/Identity_3"
  op: "Identity"
  input: "lstm_layer/rnn/while/Switch_3:1"
  attr {
    key: "T"
    value {
      type: DT_FLOAT
    }
  }
  attr {
    key: "_output_shapes"
    value {
      list {
        shape {
          dim {
            size: -1
          }
          dim {
            size: 128
          }
        }
      }
    }
  }
}
node {
  name: "lstm_layer/rnn/while/add/y"
  op: "Const"
  input: "^lstm_layer/rnn/while/Identity"
  attr {
    key: "_output_shapes"
    value {
      list {
        shape {
        }
      }
    }
  }
  attr {
    key: "dtype"
    value {
      type: DT_INT32
    }
  }
  attr {
    key: "value"
    value {
      tensor {
        dtype: DT_INT32
        tensor_shape {
        }
        int_val: 1
      }
    }
  }
}
node {
  name: "lstm_layer/rnn/while/add"
  op: "Add"
  input: "lstm_layer/rnn/while/Identity"
  input: "lstm_layer/rnn/while/add/y"
  attr {
    key: "T"
    value {
      type: DT_INT32
    }
  }
  attr {
    key: "_output_shapes"
    value {
      list {
        shape {
        }
      }
    }
  }
}
node {
  name: "lstm_layer/rnn/while/TensorArrayReadV3"
  op: "TensorArrayReadV3"
  input: "lstm_layer/rnn/while/TensorArrayReadV3/Enter"
  input: "lstm_layer/rnn/while/Identity_1"
  input: "lstm_layer/rnn/while/TensorArrayReadV3/Enter_1"
  attr {
    key: "_output_shapes"
    value {
      list {
        shape {
          dim {
            size: -1
          }
          dim {
            size: 6
          }
        }
      }
    }
  }
  attr {
    key: "dtype"
    value {
      type: DT_FLOAT
    }
  }
}
node {
  name: "lstm_layer/rnn/while/TensorArrayReadV3/Enter"
  op: "Enter"
  input: "lstm_layer/rnn/TensorArray_1"
  attr {
    key: "T"
    value {
      type: DT_RESOURCE
    }
  }
  attr {
    key: "_output_shapes"
    value {
      list {
        shape {
          dim {
            size: 2
          }
        }
      }
    }
  }
  attr {
    key: "frame_name"
    value {
      s: "lstm_layer/rnn/while/while_context"
    }
  }
  attr {
    key: "is_constant"
    value {
      b: true
    }
  }
  attr {
    key: "parallel_iterations"
    value {
      i: 32
    }
  }
}
node {
  name: "lstm_layer/rnn/while/TensorArrayReadV3/Enter_1"
  op: "Enter"
  input: "lstm_layer/rnn/TensorArrayUnstack/TensorArrayScatter/TensorArrayScatterV3"
  attr {
    key: "T"
    value {
      type: DT_FLOAT
    }
  }
  attr {
    key: "_output_shapes"
    value {
      list {
        shape {
        }
      }
    }
  }
  attr {
    key: "frame_name"
    value {
      s: "lstm_layer/rnn/while/while_context"
    }
  }
  attr {
    key: "is_constant"
    value {
      b: true
    }
  }
  attr {
    key: "parallel_iterations"
    value {
      i: 32
    }
  }
}
node {
  name: "lstm_layer/rnn/multi_rnn_cell/cell_0/gru_cell/gates/kernel/Initializer/random_uniform/shape"
  op: "Const"
  attr {
    key: "_class"
    value {
      list {
        s: "loc:@lstm_layer/rnn/multi_rnn_cell/cell_0/gru_cell/gates/kernel"
      }
    }
  }
  attr {
    key: "_output_shapes"
    value {
      list {
        shape {
          dim {
            size: 2
          }
        }
      }
    }
  }
  attr {
    key: "dtype"
    value {
      type: DT_INT32
    }
  }
  attr {
    key: "value"
    value {
      tensor {
        dtype: DT_INT32
        tensor_shape {
          dim {
            size: 2
          }
        }
        tensor_content: "\206\000\000\000\000\001\000\000"
      }
    }
  }
}
node {
  name: "lstm_layer/rnn/multi_rnn_cell/cell_0/gru_cell/gates/kernel/Initializer/random_uniform/min"
  op: "Const"
  attr {
    key: "_class"
    value {
      list {
        s: "loc:@lstm_layer/rnn/multi_rnn_cell/cell_0/gru_cell/gates/kernel"
      }
    }
  }
  attr {
    key: "_output_shapes"
    value {
      list {
        shape {
        }
      }
    }
  }
  attr {
    key: "dtype"
    value {
      type: DT_FLOAT
    }
  }
  attr {
    key: "value"
    value {
      tensor {
        dtype: DT_FLOAT
        tensor_shape {
        }
        float_val: -0.12403473258018494
      }
    }
  }
}
node {
  name: "lstm_layer/rnn/multi_rnn_cell/cell_0/gru_cell/gates/kernel/Initializer/random_uniform/max"
  op: "Const"
  attr {
    key: "_class"
    value {
      list {
        s: "loc:@lstm_layer/rnn/multi_rnn_cell/cell_0/gru_cell/gates/kernel"
      }
    }
  }
  attr {
    key: "_output_shapes"
    value {
      list {
        shape {
        }
      }
    }
  }
  attr {
    key: "dtype"
    value {
      type: DT_FLOAT
    }
  }
  attr {
    key: "value"
    value {
      tensor {
        dtype: DT_FLOAT
        tensor_shape {
        }
        float_val: 0.12403473258018494
      }
    }
  }
}
node {
  name: "lstm_layer/rnn/multi_rnn_cell/cell_0/gru_cell/gates/kernel/Initializer/random_uniform/RandomUniform"
  op: "RandomUniform"
  input: "lstm_layer/rnn/multi_rnn_cell/cell_0/gru_cell/gates/kernel/Initializer/random_uniform/shape"
  attr {
    key: "T"
    value {
      type: DT_INT32
    }
  }
  attr {
    key: "_class"
    value {
      list {
        s: "loc:@lstm_layer/rnn/multi_rnn_cell/cell_0/gru_cell/gates/kernel"
      }
    }
  }
  attr {
    key: "_output_shapes"
    value {
      list {
        shape {
          dim {
            size: 134
          }
          dim {
            size: 256
          }
        }
      }
    }
  }
  attr {
    key: "dtype"
    value {
      type: DT_FLOAT
    }
  }
  attr {
    key: "seed"
    value {
      i: 0
    }
  }
  attr {
    key: "seed2"
    value {
      i: 0
    }
  }
}
node {
  name: "lstm_layer/rnn/multi_rnn_cell/cell_0/gru_cell/gates/kernel/Initializer/random_uniform/sub"
  op: "Sub"
  input: "lstm_layer/rnn/multi_rnn_cell/cell_0/gru_cell/gates/kernel/Initializer/random_uniform/max"
  input: "lstm_layer/rnn/multi_rnn_cell/cell_0/gru_cell/gates/kernel/Initializer/random_uniform/min"
  attr {
    key: "T"
    value {
      type: DT_FLOAT
    }
  }
  attr {
    key: "_class"
    value {
      list {
        s: "loc:@lstm_layer/rnn/multi_rnn_cell/cell_0/gru_cell/gates/kernel"
      }
    }
  }
  attr {
    key: "_output_shapes"
    value {
      list {
        shape {
        }
      }
    }
  }
}
node {
  name: "lstm_layer/rnn/multi_rnn_cell/cell_0/gru_cell/gates/kernel/Initializer/random_uniform/mul"
  op: "Mul"
  input: "lstm_layer/rnn/multi_rnn_cell/cell_0/gru_cell/gates/kernel/Initializer/random_uniform/RandomUniform"
  input: "lstm_layer/rnn/multi_rnn_cell/cell_0/gru_cell/gates/kernel/Initializer/random_uniform/sub"
  attr {
    key: "T"
    value {
      type: DT_FLOAT
    }
  }
  attr {
    key: "_class"
    value {
      list {
        s: "loc:@lstm_layer/rnn/multi_rnn_cell/cell_0/gru_cell/gates/kernel"
      }
    }
  }
  attr {
    key: "_output_shapes"
    value {
      list {
        shape {
          dim {
            size: 134
          }
          dim {
            size: 256
          }
        }
      }
    }
  }
}
node {
  name: "lstm_layer/rnn/multi_rnn_cell/cell_0/gru_cell/gates/kernel/Initializer/random_uniform"
  op: "Add"
  input: "lstm_layer/rnn/multi_rnn_cell/cell_0/gru_cell/gates/kernel/Initializer/random_uniform/mul"
  input: "lstm_layer/rnn/multi_rnn_cell/cell_0/gru_cell/gates/kernel/Initializer/random_uniform/min"
  attr {
    key: "T"
    value {
      type: DT_FLOAT
    }
  }
  attr {
    key: "_class"
    value {
      list {
        s: "loc:@lstm_layer/rnn/multi_rnn_cell/cell_0/gru_cell/gates/kernel"
      }
    }
  }
  attr {
    key: "_output_shapes"
    value {
      list {
        shape {
          dim {
            size: 134
          }
          dim {
            size: 256
          }
        }
      }
    }
  }
}
node {
  name: "lstm_layer/rnn/multi_rnn_cell/cell_0/gru_cell/gates/kernel"
  op: "VariableV2"
  attr {
    key: "_class"
    value {
      list {
        s: "loc:@lstm_layer/rnn/multi_rnn_cell/cell_0/gru_cell/gates/kernel"
      }
    }
  }
  attr {
    key: "_output_shapes"
    value {
      list {
        shape {
          dim {
            size: 134
          }
          dim {
            size: 256
          }
        }
      }
    }
  }
  attr {
    key: "container"
    value {
      s: ""
    }
  }
  attr {
    key: "dtype"
    value {
      type: DT_FLOAT
    }
  }
  attr {
    key: "shape"
    value {
      shape {
        dim {
          size: 134
        }
        dim {
          size: 256
        }
      }
    }
  }
  attr {
    key: "shared_name"
    value {
      s: ""
    }
  }
}
node {
  name: "lstm_layer/rnn/multi_rnn_cell/cell_0/gru_cell/gates/kernel/Assign"
  op: "Assign"
  input: "lstm_layer/rnn/multi_rnn_cell/cell_0/gru_cell/gates/kernel"
  input: "lstm_layer/rnn/multi_rnn_cell/cell_0/gru_cell/gates/kernel/Initializer/random_uniform"
  attr {
    key: "T"
    value {
      type: DT_FLOAT
    }
  }
  attr {
    key: "_class"
    value {
      list {
        s: "loc:@lstm_layer/rnn/multi_rnn_cell/cell_0/gru_cell/gates/kernel"
      }
    }
  }
  attr {
    key: "_output_shapes"
    value {
      list {
        shape {
          dim {
            size: 134
          }
          dim {
            size: 256
          }
        }
      }
    }
  }
  attr {
    key: "use_locking"
    value {
      b: true
    }
  }
  attr {
    key: "validate_shape"
    value {
      b: true
    }
  }
}
node {
  name: "lstm_layer/rnn/multi_rnn_cell/cell_0/gru_cell/gates/kernel/read"
  op: "Identity"
  input: "lstm_layer/rnn/multi_rnn_cell/cell_0/gru_cell/gates/kernel"
  attr {
    key: "T"
    value {
      type: DT_FLOAT
    }
  }
  attr {
    key: "_output_shapes"
    value {
      list {
        shape {
          dim {
            size: 134
          }
          dim {
            size: 256
          }
        }
      }
    }
  }
}
node {
  name: "lstm_layer/rnn/multi_rnn_cell/cell_0/gru_cell/gates/bias/Initializer/Const"
  op: "Const"
  attr {
    key: "_class"
    value {
      list {
        s: "loc:@lstm_layer/rnn/multi_rnn_cell/cell_0/gru_cell/gates/bias"
      }
    }
  }
  attr {
    key: "_output_shapes"
    value {
      list {
        shape {
          dim {
            size: 256
          }
        }
      }
    }
  }
  attr {
    key: "dtype"
    value {
      type: DT_FLOAT
    }
  }
  attr {
    key: "value"
    value {
      tensor {
        dtype: DT_FLOAT
        tensor_shape {
          dim {
            size: 256
          }
        }
        float_val: 1.0
      }
    }
  }
}
node {
  name: "lstm_layer/rnn/multi_rnn_cell/cell_0/gru_cell/gates/bias"
  op: "VariableV2"
  attr {
    key: "_class"
    value {
      list {
        s: "loc:@lstm_layer/rnn/multi_rnn_cell/cell_0/gru_cell/gates/bias"
      }
    }
  }
  attr {
    key: "_output_shapes"
    value {
      list {
        shape {
          dim {
            size: 256
          }
        }
      }
    }
  }
  attr {
    key: "container"
    value {
      s: ""
    }
  }
  attr {
    key: "dtype"
    value {
      type: DT_FLOAT
    }
  }
  attr {
    key: "shape"
    value {
      shape {
        dim {
          size: 256
        }
      }
    }
  }
  attr {
    key: "shared_name"
    value {
      s: ""
    }
  }
}
node {
  name: "lstm_layer/rnn/multi_rnn_cell/cell_0/gru_cell/gates/bias/Assign"
  op: "Assign"
  input: "lstm_layer/rnn/multi_rnn_cell/cell_0/gru_cell/gates/bias"
  input: "lstm_layer/rnn/multi_rnn_cell/cell_0/gru_cell/gates/bias/Initializer/Const"
  attr {
    key: "T"
    value {
      type: DT_FLOAT
    }
  }
  attr {
    key: "_class"
    value {
      list {
        s: "loc:@lstm_layer/rnn/multi_rnn_cell/cell_0/gru_cell/gates/bias"
      }
    }
  }
  attr {
    key: "_output_shapes"
    value {
      list {
        shape {
          dim {
            size: 256
          }
        }
      }
    }
  }
  attr {
    key: "use_locking"
    value {
      b: true
    }
  }
  attr {
    key: "validate_shape"
    value {
      b: true
    }
  }
}
node {
  name: "lstm_layer/rnn/multi_rnn_cell/cell_0/gru_cell/gates/bias/read"
  op: "Identity"
  input: "lstm_layer/rnn/multi_rnn_cell/cell_0/gru_cell/gates/bias"
  attr {
    key: "T"
    value {
      type: DT_FLOAT
    }
  }
  attr {
    key: "_output_shapes"
    value {
      list {
        shape {
          dim {
            size: 256
          }
        }
      }
    }
  }
}
node {
  name: "lstm_layer/rnn/multi_rnn_cell/cell_0/gru_cell/candidate/kernel/Initializer/random_uniform/shape"
  op: "Const"
  attr {
    key: "_class"
    value {
      list {
        s: "loc:@lstm_layer/rnn/multi_rnn_cell/cell_0/gru_cell/candidate/kernel"
      }
    }
  }
  attr {
    key: "_output_shapes"
    value {
      list {
        shape {
          dim {
            size: 2
          }
        }
      }
    }
  }
  attr {
    key: "dtype"
    value {
      type: DT_INT32
    }
  }
  attr {
    key: "value"
    value {
      tensor {
        dtype: DT_INT32
        tensor_shape {
          dim {
            size: 2
          }
        }
        tensor_content: "\206\000\000\000\200\000\000\000"
      }
    }
  }
}
node {
  name: "lstm_layer/rnn/multi_rnn_cell/cell_0/gru_cell/candidate/kernel/Initializer/random_uniform/min"
  op: "Const"
  attr {
    key: "_class"
    value {
      list {
        s: "loc:@lstm_layer/rnn/multi_rnn_cell/cell_0/gru_cell/candidate/kernel"
      }
    }
  }
  attr {
    key: "_output_shapes"
    value {
      list {
        shape {
        }
      }
    }
  }
  attr {
    key: "dtype"
    value {
      type: DT_FLOAT
    }
  }
  attr {
    key: "value"
    value {
      tensor {
        dtype: DT_FLOAT
        tensor_shape {
        }
        float_val: -0.15132997930049896
      }
    }
  }
}
node {
  name: "lstm_layer/rnn/multi_rnn_cell/cell_0/gru_cell/candidate/kernel/Initializer/random_uniform/max"
  op: "Const"
  attr {
    key: "_class"
    value {
      list {
        s: "loc:@lstm_layer/rnn/multi_rnn_cell/cell_0/gru_cell/candidate/kernel"
      }
    }
  }
  attr {
    key: "_output_shapes"
    value {
      list {
        shape {
        }
      }
    }
  }
  attr {
    key: "dtype"
    value {
      type: DT_FLOAT
    }
  }
  attr {
    key: "value"
    value {
      tensor {
        dtype: DT_FLOAT
        tensor_shape {
        }
        float_val: 0.15132997930049896
      }
    }
  }
}
node {
  name: "lstm_layer/rnn/multi_rnn_cell/cell_0/gru_cell/candidate/kernel/Initializer/random_uniform/RandomUniform"
  op: "RandomUniform"
  input: "lstm_layer/rnn/multi_rnn_cell/cell_0/gru_cell/candidate/kernel/Initializer/random_uniform/shape"
  attr {
    key: "T"
    value {
      type: DT_INT32
    }
  }
  attr {
    key: "_class"
    value {
      list {
        s: "loc:@lstm_layer/rnn/multi_rnn_cell/cell_0/gru_cell/candidate/kernel"
      }
    }
  }
  attr {
    key: "_output_shapes"
    value {
      list {
        shape {
          dim {
            size: 134
          }
          dim {
            size: 128
          }
        }
      }
    }
  }
  attr {
    key: "dtype"
    value {
      type: DT_FLOAT
    }
  }
  attr {
    key: "seed"
    value {
      i: 0
    }
  }
  attr {
    key: "seed2"
    value {
      i: 0
    }
  }
}
node {
  name: "lstm_layer/rnn/multi_rnn_cell/cell_0/gru_cell/candidate/kernel/Initializer/random_uniform/sub"
  op: "Sub"
  input: "lstm_layer/rnn/multi_rnn_cell/cell_0/gru_cell/candidate/kernel/Initializer/random_uniform/max"
  input: "lstm_layer/rnn/multi_rnn_cell/cell_0/gru_cell/candidate/kernel/Initializer/random_uniform/min"
  attr {
    key: "T"
    value {
      type: DT_FLOAT
    }
  }
  attr {
    key: "_class"
    value {
      list {
        s: "loc:@lstm_layer/rnn/multi_rnn_cell/cell_0/gru_cell/candidate/kernel"
      }
    }
  }
  attr {
    key: "_output_shapes"
    value {
      list {
        shape {
        }
      }
    }
  }
}
node {
  name: "lstm_layer/rnn/multi_rnn_cell/cell_0/gru_cell/candidate/kernel/Initializer/random_uniform/mul"
  op: "Mul"
  input: "lstm_layer/rnn/multi_rnn_cell/cell_0/gru_cell/candidate/kernel/Initializer/random_uniform/RandomUniform"
  input: "lstm_layer/rnn/multi_rnn_cell/cell_0/gru_cell/candidate/kernel/Initializer/random_uniform/sub"
  attr {
    key: "T"
    value {
      type: DT_FLOAT
    }
  }
  attr {
    key: "_class"
    value {
      list {
        s: "loc:@lstm_layer/rnn/multi_rnn_cell/cell_0/gru_cell/candidate/kernel"
      }
    }
  }
  attr {
    key: "_output_shapes"
    value {
      list {
        shape {
          dim {
            size: 134
          }
          dim {
            size: 128
          }
        }
      }
    }
  }
}
node {
  name: "lstm_layer/rnn/multi_rnn_cell/cell_0/gru_cell/candidate/kernel/Initializer/random_uniform"
  op: "Add"
  input: "lstm_layer/rnn/multi_rnn_cell/cell_0/gru_cell/candidate/kernel/Initializer/random_uniform/mul"
  input: "lstm_layer/rnn/multi_rnn_cell/cell_0/gru_cell/candidate/kernel/Initializer/random_uniform/min"
  attr {
    key: "T"
    value {
      type: DT_FLOAT
    }
  }
  attr {
    key: "_class"
    value {
      list {
        s: "loc:@lstm_layer/rnn/multi_rnn_cell/cell_0/gru_cell/candidate/kernel"
      }
    }
  }
  attr {
    key: "_output_shapes"
    value {
      list {
        shape {
          dim {
            size: 134
          }
          dim {
            size: 128
          }
        }
      }
    }
  }
}
node {
  name: "lstm_layer/rnn/multi_rnn_cell/cell_0/gru_cell/candidate/kernel"
  op: "VariableV2"
  attr {
    key: "_class"
    value {
      list {
        s: "loc:@lstm_layer/rnn/multi_rnn_cell/cell_0/gru_cell/candidate/kernel"
      }
    }
  }
  attr {
    key: "_output_shapes"
    value {
      list {
        shape {
          dim {
            size: 134
          }
          dim {
            size: 128
          }
        }
      }
    }
  }
  attr {
    key: "container"
    value {
      s: ""
    }
  }
  attr {
    key: "dtype"
    value {
      type: DT_FLOAT
    }
  }
  attr {
    key: "shape"
    value {
      shape {
        dim {
          size: 134
        }
        dim {
          size: 128
        }
      }
    }
  }
  attr {
    key: "shared_name"
    value {
      s: ""
    }
  }
}
node {
  name: "lstm_layer/rnn/multi_rnn_cell/cell_0/gru_cell/candidate/kernel/Assign"
  op: "Assign"
  input: "lstm_layer/rnn/multi_rnn_cell/cell_0/gru_cell/candidate/kernel"
  input: "lstm_layer/rnn/multi_rnn_cell/cell_0/gru_cell/candidate/kernel/Initializer/random_uniform"
  attr {
    key: "T"
    value {
      type: DT_FLOAT
    }
  }
  attr {
    key: "_class"
    value {
      list {
        s: "loc:@lstm_layer/rnn/multi_rnn_cell/cell_0/gru_cell/candidate/kernel"
      }
    }
  }
  attr {
    key: "_output_shapes"
    value {
      list {
        shape {
          dim {
            size: 134
          }
          dim {
            size: 128
          }
        }
      }
    }
  }
  attr {
    key: "use_locking"
    value {
      b: true
    }
  }
  attr {
    key: "validate_shape"
    value {
      b: true
    }
  }
}
node {
  name: "lstm_layer/rnn/multi_rnn_cell/cell_0/gru_cell/candidate/kernel/read"
  op: "Identity"
  input: "lstm_layer/rnn/multi_rnn_cell/cell_0/gru_cell/candidate/kernel"
  attr {
    key: "T"
    value {
      type: DT_FLOAT
    }
  }
  attr {
    key: "_output_shapes"
    value {
      list {
        shape {
          dim {
            size: 134
          }
          dim {
            size: 128
          }
        }
      }
    }
  }
}
node {
  name: "lstm_layer/rnn/multi_rnn_cell/cell_0/gru_cell/candidate/bias/Initializer/zeros"
  op: "Const"
  attr {
    key: "_class"
    value {
      list {
        s: "loc:@lstm_layer/rnn/multi_rnn_cell/cell_0/gru_cell/candidate/bias"
      }
    }
  }
  attr {
    key: "_output_shapes"
    value {
      list {
        shape {
          dim {
            size: 128
          }
        }
      }
    }
  }
  attr {
    key: "dtype"
    value {
      type: DT_FLOAT
    }
  }
  attr {
    key: "value"
    value {
      tensor {
        dtype: DT_FLOAT
        tensor_shape {
          dim {
            size: 128
          }
        }
        float_val: 0.0
      }
    }
  }
}
node {
  name: "lstm_layer/rnn/multi_rnn_cell/cell_0/gru_cell/candidate/bias"
  op: "VariableV2"
  attr {
    key: "_class"
    value {
      list {
        s: "loc:@lstm_layer/rnn/multi_rnn_cell/cell_0/gru_cell/candidate/bias"
      }
    }
  }
  attr {
    key: "_output_shapes"
    value {
      list {
        shape {
          dim {
            size: 128
          }
        }
      }
    }
  }
  attr {
    key: "container"
    value {
      s: ""
    }
  }
  attr {
    key: "dtype"
    value {
      type: DT_FLOAT
    }
  }
  attr {
    key: "shape"
    value {
      shape {
        dim {
          size: 128
        }
      }
    }
  }
  attr {
    key: "shared_name"
    value {
      s: ""
    }
  }
}
node {
  name: "lstm_layer/rnn/multi_rnn_cell/cell_0/gru_cell/candidate/bias/Assign"
  op: "Assign"
  input: "lstm_layer/rnn/multi_rnn_cell/cell_0/gru_cell/candidate/bias"
  input: "lstm_layer/rnn/multi_rnn_cell/cell_0/gru_cell/candidate/bias/Initializer/zeros"
  attr {
    key: "T"
    value {
      type: DT_FLOAT
    }
  }
  attr {
    key: "_class"
    value {
      list {
        s: "loc:@lstm_layer/rnn/multi_rnn_cell/cell_0/gru_cell/candidate/bias"
      }
    }
  }
  attr {
    key: "_output_shapes"
    value {
      list {
        shape {
          dim {
            size: 128
          }
        }
      }
    }
  }
  attr {
    key: "use_locking"
    value {
      b: true
    }
  }
  attr {
    key: "validate_shape"
    value {
      b: true
    }
  }
}
node {
  name: "lstm_layer/rnn/multi_rnn_cell/cell_0/gru_cell/candidate/bias/read"
  op: "Identity"
  input: "lstm_layer/rnn/multi_rnn_cell/cell_0/gru_cell/candidate/bias"
  attr {
    key: "T"
    value {
      type: DT_FLOAT
    }
  }
  attr {
    key: "_output_shapes"
    value {
      list {
        shape {
          dim {
            size: 128
          }
        }
      }
    }
  }
}
node {
  name: "lstm_layer/rnn/while/rnn/multi_rnn_cell/cell_0/gru_cell/concat/axis"
  op: "Const"
  input: "^lstm_layer/rnn/while/Identity"
  attr {
    key: "_output_shapes"
    value {
      list {
        shape {
        }
      }
    }
  }
  attr {
    key: "dtype"
    value {
      type: DT_INT32
    }
  }
  attr {
    key: "value"
    value {
      tensor {
        dtype: DT_INT32
        tensor_shape {
        }
        int_val: 1
      }
    }
  }
}
node {
  name: "lstm_layer/rnn/while/rnn/multi_rnn_cell/cell_0/gru_cell/concat"
  op: "ConcatV2"
  input: "lstm_layer/rnn/while/TensorArrayReadV3"
  input: "lstm_layer/rnn/while/Identity_3"
  input: "lstm_layer/rnn/while/rnn/multi_rnn_cell/cell_0/gru_cell/concat/axis"
  attr {
    key: "N"
    value {
      i: 2
    }
  }
  attr {
    key: "T"
    value {
      type: DT_FLOAT
    }
  }
  attr {
    key: "Tidx"
    value {
      type: DT_INT32
    }
  }
  attr {
    key: "_output_shapes"
    value {
      list {
        shape {
          dim {
            size: -1
          }
          dim {
            size: 134
          }
        }
      }
    }
  }
}
node {
  name: "lstm_layer/rnn/while/rnn/multi_rnn_cell/cell_0/gru_cell/MatMul"
  op: "MatMul"
  input: "lstm_layer/rnn/while/rnn/multi_rnn_cell/cell_0/gru_cell/concat"
  input: "lstm_layer/rnn/while/rnn/multi_rnn_cell/cell_0/gru_cell/MatMul/Enter"
  attr {
    key: "T"
    value {
      type: DT_FLOAT
    }
  }
  attr {
    key: "_output_shapes"
    value {
      list {
        shape {
          dim {
            size: -1
          }
          dim {
            size: 256
          }
        }
      }
    }
  }
  attr {
    key: "transpose_a"
    value {
      b: false
    }
  }
  attr {
    key: "transpose_b"
    value {
      b: false
    }
  }
}
node {
  name: "lstm_layer/rnn/while/rnn/multi_rnn_cell/cell_0/gru_cell/MatMul/Enter"
  op: "Enter"
  input: "lstm_layer/rnn/multi_rnn_cell/cell_0/gru_cell/gates/kernel/read"
  attr {
    key: "T"
    value {
      type: DT_FLOAT
    }
  }
  attr {
    key: "_output_shapes"
    value {
      list {
        shape {
          dim {
            size: 134
          }
          dim {
            size: 256
          }
        }
      }
    }
  }
  attr {
    key: "frame_name"
    value {
      s: "lstm_layer/rnn/while/while_context"
    }
  }
  attr {
    key: "is_constant"
    value {
      b: true
    }
  }
  attr {
    key: "parallel_iterations"
    value {
      i: 32
    }
  }
}
node {
  name: "lstm_layer/rnn/while/rnn/multi_rnn_cell/cell_0/gru_cell/BiasAdd"
  op: "BiasAdd"
  input: "lstm_layer/rnn/while/rnn/multi_rnn_cell/cell_0/gru_cell/MatMul"
  input: "lstm_layer/rnn/while/rnn/multi_rnn_cell/cell_0/gru_cell/BiasAdd/Enter"
  attr {
    key: "T"
    value {
      type: DT_FLOAT
    }
  }
  attr {
    key: "_output_shapes"
    value {
      list {
        shape {
          dim {
            size: -1
          }
          dim {
            size: 256
          }
        }
      }
    }
  }
  attr {
    key: "data_format"
    value {
      s: "NHWC"
    }
  }
}
node {
  name: "lstm_layer/rnn/while/rnn/multi_rnn_cell/cell_0/gru_cell/BiasAdd/Enter"
  op: "Enter"
  input: "lstm_layer/rnn/multi_rnn_cell/cell_0/gru_cell/gates/bias/read"
  attr {
    key: "T"
    value {
      type: DT_FLOAT
    }
  }
  attr {
    key: "_output_shapes"
    value {
      list {
        shape {
          dim {
            size: 256
          }
        }
      }
    }
  }
  attr {
    key: "frame_name"
    value {
      s: "lstm_layer/rnn/while/while_context"
    }
  }
  attr {
    key: "is_constant"
    value {
      b: true
    }
  }
  attr {
    key: "parallel_iterations"
    value {
      i: 32
    }
  }
}
node {
  name: "lstm_layer/rnn/while/rnn/multi_rnn_cell/cell_0/gru_cell/Sigmoid"
  op: "Sigmoid"
  input: "lstm_layer/rnn/while/rnn/multi_rnn_cell/cell_0/gru_cell/BiasAdd"
  attr {
    key: "T"
    value {
      type: DT_FLOAT
    }
  }
  attr {
    key: "_output_shapes"
    value {
      list {
        shape {
          dim {
            size: -1
          }
          dim {
            size: 256
          }
        }
      }
    }
  }
}
node {
  name: "lstm_layer/rnn/while/rnn/multi_rnn_cell/cell_0/gru_cell/Const"
  op: "Const"
  input: "^lstm_layer/rnn/while/Identity"
  attr {
    key: "_output_shapes"
    value {
      list {
        shape {
        }
      }
    }
  }
  attr {
    key: "dtype"
    value {
      type: DT_INT32
    }
  }
  attr {
    key: "value"
    value {
      tensor {
        dtype: DT_INT32
        tensor_shape {
        }
        int_val: 2
      }
    }
  }
}
node {
  name: "lstm_layer/rnn/while/rnn/multi_rnn_cell/cell_0/gru_cell/split/split_dim"
  op: "Const"
  input: "^lstm_layer/rnn/while/Identity"
  attr {
    key: "_output_shapes"
    value {
      list {
        shape {
        }
      }
    }
  }
  attr {
    key: "dtype"
    value {
      type: DT_INT32
    }
  }
  attr {
    key: "value"
    value {
      tensor {
        dtype: DT_INT32
        tensor_shape {
        }
        int_val: 1
      }
    }
  }
}
node {
  name: "lstm_layer/rnn/while/rnn/multi_rnn_cell/cell_0/gru_cell/split"
  op: "Split"
  input: "lstm_layer/rnn/while/rnn/multi_rnn_cell/cell_0/gru_cell/split/split_dim"
  input: "lstm_layer/rnn/while/rnn/multi_rnn_cell/cell_0/gru_cell/Sigmoid"
  attr {
    key: "T"
    value {
      type: DT_FLOAT
    }
  }
  attr {
    key: "_output_shapes"
    value {
      list {
        shape {
          dim {
            size: -1
          }
          dim {
            size: 128
          }
        }
        shape {
          dim {
            size: -1
          }
          dim {
            size: 128
          }
        }
      }
    }
  }
  attr {
    key: "num_split"
    value {
      i: 2
    }
  }
}
node {
  name: "lstm_layer/rnn/while/rnn/multi_rnn_cell/cell_0/gru_cell/mul"
  op: "Mul"
  input: "lstm_layer/rnn/while/rnn/multi_rnn_cell/cell_0/gru_cell/split"
  input: "lstm_layer/rnn/while/Identity_3"
  attr {
    key: "T"
    value {
      type: DT_FLOAT
    }
  }
  attr {
    key: "_output_shapes"
    value {
      list {
        shape {
          dim {
            size: -1
          }
          dim {
            size: 128
          }
        }
      }
    }
  }
}
node {
  name: "lstm_layer/rnn/while/rnn/multi_rnn_cell/cell_0/gru_cell/concat_1/axis"
  op: "Const"
  input: "^lstm_layer/rnn/while/Identity"
  attr {
    key: "_output_shapes"
    value {
      list {
        shape {
        }
      }
    }
  }
  attr {
    key: "dtype"
    value {
      type: DT_INT32
    }
  }
  attr {
    key: "value"
    value {
      tensor {
        dtype: DT_INT32
        tensor_shape {
        }
        int_val: 1
      }
    }
  }
}
node {
  name: "lstm_layer/rnn/while/rnn/multi_rnn_cell/cell_0/gru_cell/concat_1"
  op: "ConcatV2"
  input: "lstm_layer/rnn/while/TensorArrayReadV3"
  input: "lstm_layer/rnn/while/rnn/multi_rnn_cell/cell_0/gru_cell/mul"
  input: "lstm_layer/rnn/while/rnn/multi_rnn_cell/cell_0/gru_cell/concat_1/axis"
  attr {
    key: "N"
    value {
      i: 2
    }
  }
  attr {
    key: "T"
    value {
      type: DT_FLOAT
    }
  }
  attr {
    key: "Tidx"
    value {
      type: DT_INT32
    }
  }
  attr {
    key: "_output_shapes"
    value {
      list {
        shape {
          dim {
            size: -1
          }
          dim {
            size: 134
          }
        }
      }
    }
  }
}
node {
  name: "lstm_layer/rnn/while/rnn/multi_rnn_cell/cell_0/gru_cell/MatMul_1"
  op: "MatMul"
  input: "lstm_layer/rnn/while/rnn/multi_rnn_cell/cell_0/gru_cell/concat_1"
  input: "lstm_layer/rnn/while/rnn/multi_rnn_cell/cell_0/gru_cell/MatMul_1/Enter"
  attr {
    key: "T"
    value {
      type: DT_FLOAT
    }
  }
  attr {
    key: "_output_shapes"
    value {
      list {
        shape {
          dim {
            size: -1
          }
          dim {
            size: 128
          }
        }
      }
    }
  }
  attr {
    key: "transpose_a"
    value {
      b: false
    }
  }
  attr {
    key: "transpose_b"
    value {
      b: false
    }
  }
}
node {
  name: "lstm_layer/rnn/while/rnn/multi_rnn_cell/cell_0/gru_cell/MatMul_1/Enter"
  op: "Enter"
  input: "lstm_layer/rnn/multi_rnn_cell/cell_0/gru_cell/candidate/kernel/read"
  attr {
    key: "T"
    value {
      type: DT_FLOAT
    }
  }
  attr {
    key: "_output_shapes"
    value {
      list {
        shape {
          dim {
            size: 134
          }
          dim {
            size: 128
          }
        }
      }
    }
  }
  attr {
    key: "frame_name"
    value {
      s: "lstm_layer/rnn/while/while_context"
    }
  }
  attr {
    key: "is_constant"
    value {
      b: true
    }
  }
  attr {
    key: "parallel_iterations"
    value {
      i: 32
    }
  }
}
node {
  name: "lstm_layer/rnn/while/rnn/multi_rnn_cell/cell_0/gru_cell/BiasAdd_1"
  op: "BiasAdd"
  input: "lstm_layer/rnn/while/rnn/multi_rnn_cell/cell_0/gru_cell/MatMul_1"
  input: "lstm_layer/rnn/while/rnn/multi_rnn_cell/cell_0/gru_cell/BiasAdd_1/Enter"
  attr {
    key: "T"
    value {
      type: DT_FLOAT
    }
  }
  attr {
    key: "_output_shapes"
    value {
      list {
        shape {
          dim {
            size: -1
          }
          dim {
            size: 128
          }
        }
      }
    }
  }
  attr {
    key: "data_format"
    value {
      s: "NHWC"
    }
  }
}
node {
  name: "lstm_layer/rnn/while/rnn/multi_rnn_cell/cell_0/gru_cell/BiasAdd_1/Enter"
  op: "Enter"
  input: "lstm_layer/rnn/multi_rnn_cell/cell_0/gru_cell/candidate/bias/read"
  attr {
    key: "T"
    value {
      type: DT_FLOAT
    }
  }
  attr {
    key: "_output_shapes"
    value {
      list {
        shape {
          dim {
            size: 128
          }
        }
      }
    }
  }
  attr {
    key: "frame_name"
    value {
      s: "lstm_layer/rnn/while/while_context"
    }
  }
  attr {
    key: "is_constant"
    value {
      b: true
    }
  }
  attr {
    key: "parallel_iterations"
    value {
      i: 32
    }
  }
}
node {
  name: "lstm_layer/rnn/while/rnn/multi_rnn_cell/cell_0/gru_cell/Tanh"
  op: "Tanh"
  input: "lstm_layer/rnn/while/rnn/multi_rnn_cell/cell_0/gru_cell/BiasAdd_1"
  attr {
    key: "T"
    value {
      type: DT_FLOAT
    }
  }
  attr {
    key: "_output_shapes"
    value {
      list {
        shape {
          dim {
            size: -1
          }
          dim {
            size: 128
          }
        }
      }
    }
  }
}
node {
  name: "lstm_layer/rnn/while/rnn/multi_rnn_cell/cell_0/gru_cell/mul_1"
  op: "Mul"
  input: "lstm_layer/rnn/while/rnn/multi_rnn_cell/cell_0/gru_cell/split:1"
  input: "lstm_layer/rnn/while/Identity_3"
  attr {
    key: "T"
    value {
      type: DT_FLOAT
    }
  }
  attr {
    key: "_output_shapes"
    value {
      list {
        shape {
          dim {
            size: -1
          }
          dim {
            size: 128
          }
        }
      }
    }
  }
}
node {
  name: "lstm_layer/rnn/while/rnn/multi_rnn_cell/cell_0/gru_cell/sub/x"
  op: "Const"
  input: "^lstm_layer/rnn/while/Identity"
  attr {
    key: "_output_shapes"
    value {
      list {
        shape {
        }
      }
    }
  }
  attr {
    key: "dtype"
    value {
      type: DT_FLOAT
    }
  }
  attr {
    key: "value"
    value {
      tensor {
        dtype: DT_FLOAT
        tensor_shape {
        }
        float_val: 1.0
      }
    }
  }
}
node {
  name: "lstm_layer/rnn/while/rnn/multi_rnn_cell/cell_0/gru_cell/sub"
  op: "Sub"
  input: "lstm_layer/rnn/while/rnn/multi_rnn_cell/cell_0/gru_cell/sub/x"
  input: "lstm_layer/rnn/while/rnn/multi_rnn_cell/cell_0/gru_cell/split:1"
  attr {
    key: "T"
    value {
      type: DT_FLOAT
    }
  }
  attr {
    key: "_output_shapes"
    value {
      list {
        shape {
          dim {
            size: -1
          }
          dim {
            size: 128
          }
        }
      }
    }
  }
}
node {
  name: "lstm_layer/rnn/while/rnn/multi_rnn_cell/cell_0/gru_cell/mul_2"
  op: "Mul"
  input: "lstm_layer/rnn/while/rnn/multi_rnn_cell/cell_0/gru_cell/sub"
  input: "lstm_layer/rnn/while/rnn/multi_rnn_cell/cell_0/gru_cell/Tanh"
  attr {
    key: "T"
    value {
      type: DT_FLOAT
    }
  }
  attr {
    key: "_output_shapes"
    value {
      list {
        shape {
          dim {
            size: -1
          }
          dim {
            size: 128
          }
        }
      }
    }
  }
}
node {
  name: "lstm_layer/rnn/while/rnn/multi_rnn_cell/cell_0/gru_cell/add"
  op: "Add"
  input: "lstm_layer/rnn/while/rnn/multi_rnn_cell/cell_0/gru_cell/mul_1"
  input: "lstm_layer/rnn/while/rnn/multi_rnn_cell/cell_0/gru_cell/mul_2"
  attr {
    key: "T"
    value {
      type: DT_FLOAT
    }
  }
  attr {
    key: "_output_shapes"
    value {
      list {
        shape {
          dim {
            size: -1
          }
          dim {
            size: 128
          }
        }
      }
    }
  }
}
node {
  name: "lstm_layer/rnn/while/TensorArrayWrite/TensorArrayWriteV3"
  op: "TensorArrayWriteV3"
  input: "lstm_layer/rnn/while/TensorArrayWrite/TensorArrayWriteV3/Enter"
  input: "lstm_layer/rnn/while/Identity_1"
  input: "lstm_layer/rnn/while/rnn/multi_rnn_cell/cell_0/gru_cell/add"
  input: "lstm_layer/rnn/while/Identity_2"
  attr {
    key: "T"
    value {
      type: DT_FLOAT
    }
  }
  attr {
    key: "_class"
    value {
      list {
        s: "loc:@lstm_layer/rnn/while/rnn/multi_rnn_cell/cell_0/gru_cell/add"
      }
    }
  }
  attr {
    key: "_output_shapes"
    value {
      list {
        shape {
        }
      }
    }
  }
}
node {
  name: "lstm_layer/rnn/while/TensorArrayWrite/TensorArrayWriteV3/Enter"
  op: "Enter"
  input: "lstm_layer/rnn/TensorArray"
  attr {
    key: "T"
    value {
      type: DT_RESOURCE
    }
  }
  attr {
    key: "_class"
    value {
      list {
        s: "loc:@lstm_layer/rnn/while/rnn/multi_rnn_cell/cell_0/gru_cell/add"
      }
    }
  }
  attr {
    key: "_output_shapes"
    value {
      list {
        shape {
          dim {
            size: 2
          }
        }
      }
    }
  }
  attr {
    key: "frame_name"
    value {
      s: "lstm_layer/rnn/while/while_context"
    }
  }
  attr {
    key: "is_constant"
    value {
      b: true
    }
  }
  attr {
    key: "parallel_iterations"
    value {
      i: 32
    }
  }
}
node {
  name: "lstm_layer/rnn/while/add_1/y"
  op: "Const"
  input: "^lstm_layer/rnn/while/Identity"
  attr {
    key: "_output_shapes"
    value {
      list {
        shape {
        }
      }
    }
  }
  attr {
    key: "dtype"
    value {
      type: DT_INT32
    }
  }
  attr {
    key: "value"
    value {
      tensor {
        dtype: DT_INT32
        tensor_shape {
        }
        int_val: 1
      }
    }
  }
}
node {
  name: "lstm_layer/rnn/while/add_1"
  op: "Add"
  input: "lstm_layer/rnn/while/Identity_1"
  input: "lstm_layer/rnn/while/add_1/y"
  attr {
    key: "T"
    value {
      type: DT_INT32
    }
  }
  attr {
    key: "_output_shapes"
    value {
      list {
        shape {
        }
      }
    }
  }
}
node {
  name: "lstm_layer/rnn/while/NextIteration"
  op: "NextIteration"
  input: "lstm_layer/rnn/while/add"
  attr {
    key: "T"
    value {
      type: DT_INT32
    }
  }
  attr {
    key: "_output_shapes"
    value {
      list {
        shape {
        }
      }
    }
  }
}
node {
  name: "lstm_layer/rnn/while/NextIteration_1"
  op: "NextIteration"
  input: "lstm_layer/rnn/while/add_1"
  attr {
    key: "T"
    value {
      type: DT_INT32
    }
  }
  attr {
    key: "_output_shapes"
    value {
      list {
        shape {
        }
      }
    }
  }
}
node {
  name: "lstm_layer/rnn/while/NextIteration_2"
  op: "NextIteration"
  input: "lstm_layer/rnn/while/TensorArrayWrite/TensorArrayWriteV3"
  attr {
    key: "T"
    value {
      type: DT_FLOAT
    }
  }
  attr {
    key: "_output_shapes"
    value {
      list {
        shape {
        }
      }
    }
  }
}
node {
  name: "lstm_layer/rnn/while/NextIteration_3"
  op: "NextIteration"
  input: "lstm_layer/rnn/while/rnn/multi_rnn_cell/cell_0/gru_cell/add"
  attr {
    key: "T"
    value {
      type: DT_FLOAT
    }
  }
  attr {
    key: "_output_shapes"
    value {
      list {
        shape {
          dim {
            size: -1
          }
          dim {
            size: 128
          }
        }
      }
    }
  }
}
node {
  name: "lstm_layer/rnn/while/Exit"
  op: "Exit"
  input: "lstm_layer/rnn/while/Switch"
  attr {
    key: "T"
    value {
      type: DT_INT32
    }
  }
  attr {
    key: "_output_shapes"
    value {
      list {
        shape {
        }
      }
    }
  }
}
node {
  name: "lstm_layer/rnn/while/Exit_1"
  op: "Exit"
  input: "lstm_layer/rnn/while/Switch_1"
  attr {
    key: "T"
    value {
      type: DT_INT32
    }
  }
  attr {
    key: "_output_shapes"
    value {
      list {
        shape {
        }
      }
    }
  }
}
node {
  name: "lstm_layer/rnn/while/Exit_2"
  op: "Exit"
  input: "lstm_layer/rnn/while/Switch_2"
  attr {
    key: "T"
    value {
      type: DT_FLOAT
    }
  }
  attr {
    key: "_output_shapes"
    value {
      list {
        shape {
        }
      }
    }
  }
}
node {
  name: "lstm_layer/rnn/while/Exit_3"
  op: "Exit"
  input: "lstm_layer/rnn/while/Switch_3"
  attr {
    key: "T"
    value {
      type: DT_FLOAT
    }
  }
  attr {
    key: "_output_shapes"
    value {
      list {
        shape {
          dim {
            size: -1
          }
          dim {
            size: 128
          }
        }
      }
    }
  }
}
node {
  name: "lstm_layer/rnn/TensorArrayStack/TensorArraySizeV3"
  op: "TensorArraySizeV3"
  input: "lstm_layer/rnn/TensorArray"
  input: "lstm_layer/rnn/while/Exit_2"
  attr {
    key: "_class"
    value {
      list {
        s: "loc:@lstm_layer/rnn/TensorArray"
      }
    }
  }
  attr {
    key: "_output_shapes"
    value {
      list {
        shape {
        }
      }
    }
  }
}
node {
  name: "lstm_layer/rnn/TensorArrayStack/range/start"
  op: "Const"
  attr {
    key: "_class"
    value {
      list {
        s: "loc:@lstm_layer/rnn/TensorArray"
      }
    }
  }
  attr {
    key: "_output_shapes"
    value {
      list {
        shape {
        }
      }
    }
  }
  attr {
    key: "dtype"
    value {
      type: DT_INT32
    }
  }
  attr {
    key: "value"
    value {
      tensor {
        dtype: DT_INT32
        tensor_shape {
        }
        int_val: 0
      }
    }
  }
}
node {
  name: "lstm_layer/rnn/TensorArrayStack/range/delta"
  op: "Const"
  attr {
    key: "_class"
    value {
      list {
        s: "loc:@lstm_layer/rnn/TensorArray"
      }
    }
  }
  attr {
    key: "_output_shapes"
    value {
      list {
        shape {
        }
      }
    }
  }
  attr {
    key: "dtype"
    value {
      type: DT_INT32
    }
  }
  attr {
    key: "value"
    value {
      tensor {
        dtype: DT_INT32
        tensor_shape {
        }
        int_val: 1
      }
    }
  }
}
node {
  name: "lstm_layer/rnn/TensorArrayStack/range"
  op: "Range"
  input: "lstm_layer/rnn/TensorArrayStack/range/start"
  input: "lstm_layer/rnn/TensorArrayStack/TensorArraySizeV3"
  input: "lstm_layer/rnn/TensorArrayStack/range/delta"
  attr {
    key: "Tidx"
    value {
      type: DT_INT32
    }
  }
  attr {
    key: "_class"
    value {
      list {
        s: "loc:@lstm_layer/rnn/TensorArray"
      }
    }
  }
  attr {
    key: "_output_shapes"
    value {
      list {
        shape {
          dim {
            size: -1
          }
        }
      }
    }
  }
}
node {
  name: "lstm_layer/rnn/TensorArrayStack/TensorArrayGatherV3"
  op: "TensorArrayGatherV3"
  input: "lstm_layer/rnn/TensorArray"
  input: "lstm_layer/rnn/TensorArrayStack/range"
  input: "lstm_layer/rnn/while/Exit_2"
  attr {
    key: "_class"
    value {
      list {
        s: "loc:@lstm_layer/rnn/TensorArray"
      }
    }
  }
  attr {
    key: "_output_shapes"
    value {
      list {
        shape {
          dim {
            size: 50
          }
          dim {
            size: -1
          }
          dim {
            size: 128
          }
        }
      }
    }
  }
  attr {
    key: "dtype"
    value {
      type: DT_FLOAT
    }
  }
  attr {
    key: "element_shape"
    value {
      shape {
        dim {
          size: -1
        }
        dim {
          size: 128
        }
      }
    }
  }
}
node {
  name: "lstm_layer/rnn/Const_1"
  op: "Const"
  attr {
    key: "_output_shapes"
    value {
      list {
        shape {
          dim {
            size: 1
          }
        }
      }
    }
  }
  attr {
    key: "dtype"
    value {
      type: DT_INT32
    }
  }
  attr {
    key: "value"
    value {
      tensor {
        dtype: DT_INT32
        tensor_shape {
          dim {
            size: 1
          }
        }
        int_val: 128
      }
    }
  }
}
node {
  name: "lstm_layer/rnn/Rank_1"
  op: "Const"
  attr {
    key: "_output_shapes"
    value {
      list {
        shape {
        }
      }
    }
  }
  attr {
    key: "dtype"
    value {
      type: DT_INT32
    }
  }
  attr {
    key: "value"
    value {
      tensor {
        dtype: DT_INT32
        tensor_shape {
        }
        int_val: 3
      }
    }
  }
}
node {
  name: "lstm_layer/rnn/range_1/start"
  op: "Const"
  attr {
    key: "_output_shapes"
    value {
      list {
        shape {
        }
      }
    }
  }
  attr {
    key: "dtype"
    value {
      type: DT_INT32
    }
  }
  attr {
    key: "value"
    value {
      tensor {
        dtype: DT_INT32
        tensor_shape {
        }
        int_val: 2
      }
    }
  }
}
node {
  name: "lstm_layer/rnn/range_1/delta"
  op: "Const"
  attr {
    key: "_output_shapes"
    value {
      list {
        shape {
        }
      }
    }
  }
  attr {
    key: "dtype"
    value {
      type: DT_INT32
    }
  }
  attr {
    key: "value"
    value {
      tensor {
        dtype: DT_INT32
        tensor_shape {
        }
        int_val: 1
      }
    }
  }
}
node {
  name: "lstm_layer/rnn/range_1"
  op: "Range"
  input: "lstm_layer/rnn/range_1/start"
  input: "lstm_layer/rnn/Rank_1"
  input: "lstm_layer/rnn/range_1/delta"
  attr {
    key: "Tidx"
    value {
      type: DT_INT32
    }
  }
  attr {
    key: "_output_shapes"
    value {
      list {
        shape {
          dim {
            size: 1
          }
        }
      }
    }
  }
}
node {
  name: "lstm_layer/rnn/concat_2/values_0"
  op: "Const"
  attr {
    key: "_output_shapes"
    value {
      list {
        shape {
          dim {
            size: 2
          }
        }
      }
    }
  }
  attr {
    key: "dtype"
    value {
      type: DT_INT32
    }
  }
  attr {
    key: "value"
    value {
      tensor {
        dtype: DT_INT32
        tensor_shape {
          dim {
            size: 2
          }
        }
        tensor_content: "\001\000\000\000\000\000\000\000"
      }
    }
  }
}
node {
  name: "lstm_layer/rnn/concat_2/axis"
  op: "Const"
  attr {
    key: "_output_shapes"
    value {
      list {
        shape {
        }
      }
    }
  }
  attr {
    key: "dtype"
    value {
      type: DT_INT32
    }
  }
  attr {
    key: "value"
    value {
      tensor {
        dtype: DT_INT32
        tensor_shape {
        }
        int_val: 0
      }
    }
  }
}
node {
  name: "lstm_layer/rnn/concat_2"
  op: "ConcatV2"
  input: "lstm_layer/rnn/concat_2/values_0"
  input: "lstm_layer/rnn/range_1"
  input: "lstm_layer/rnn/concat_2/axis"
  attr {
    key: "N"
    value {
      i: 2
    }
  }
  attr {
    key: "T"
    value {
      type: DT_INT32
    }
  }
  attr {
    key: "Tidx"
    value {
      type: DT_INT32
    }
  }
  attr {
    key: "_output_shapes"
    value {
      list {
        shape {
          dim {
            size: 3
          }
        }
      }
    }
  }
}
node {
  name: "lstm_layer/rnn/transpose_1"
  op: "Transpose"
  input: "lstm_layer/rnn/TensorArrayStack/TensorArrayGatherV3"
  input: "lstm_layer/rnn/concat_2"
  attr {
    key: "T"
    value {
      type: DT_FLOAT
    }
  }
  attr {
    key: "Tperm"
    value {
      type: DT_INT32
    }
  }
  attr {
    key: "_output_shapes"
    value {
      list {
        shape {
          dim {
            size: -1
          }
          dim {
            size: 50
          }
          dim {
            size: 128
          }
        }
      }
    }
  }
}
node {
  name: "lstm_layer/strided_slice/stack"
  op: "Const"
  attr {
    key: "_output_shapes"
    value {
      list {
        shape {
          dim {
            size: 2
          }
        }
      }
    }
  }
  attr {
    key: "dtype"
    value {
      type: DT_INT32
    }
  }
  attr {
    key: "value"
    value {
      tensor {
        dtype: DT_INT32
        tensor_shape {
          dim {
            size: 2
          }
        }
        tensor_content: "\000\000\000\000\377\377\377\377"
      }
    }
  }
}
node {
  name: "lstm_layer/strided_slice/stack_1"
  op: "Const"
  attr {
    key: "_output_shapes"
    value {
      list {
        shape {
          dim {
            size: 2
          }
        }
      }
    }
  }
  attr {
    key: "dtype"
    value {
      type: DT_INT32
    }
  }
  attr {
    key: "value"
    value {
      tensor {
        dtype: DT_INT32
        tensor_shape {
          dim {
            size: 2
          }
        }
        tensor_content: "\000\000\000\000\000\000\000\000"
      }
    }
  }
}
node {
  name: "lstm_layer/strided_slice/stack_2"
  op: "Const"
  attr {
    key: "_output_shapes"
    value {
      list {
        shape {
          dim {
            size: 2
          }
        }
      }
    }
  }
  attr {
    key: "dtype"
    value {
      type: DT_INT32
    }
  }
  attr {
    key: "value"
    value {
      tensor {
        dtype: DT_INT32
        tensor_shape {
          dim {
            size: 2
          }
        }
        tensor_content: "\001\000\000\000\001\000\000\000"
      }
    }
  }
}
node {
  name: "lstm_layer/strided_slice"
  op: "StridedSlice"
  input: "lstm_layer/rnn/transpose_1"
  input: "lstm_layer/strided_slice/stack"
  input: "lstm_layer/strided_slice/stack_1"
  input: "lstm_layer/strided_slice/stack_2"
  attr {
    key: "Index"
    value {
      type: DT_INT32
    }
  }
  attr {
    key: "T"
    value {
      type: DT_FLOAT
    }
  }
  attr {
    key: "_output_shapes"
    value {
      list {
        shape {
          dim {
            size: -1
          }
          dim {
            size: 128
          }
        }
      }
    }
  }
  attr {
    key: "begin_mask"
    value {
      i: 1
    }
  }
  attr {
    key: "ellipsis_mask"
    value {
      i: 0
    }
  }
  attr {
    key: "end_mask"
    value {
      i: 1
    }
  }
  attr {
    key: "new_axis_mask"
    value {
      i: 0
    }
  }
  attr {
    key: "shrink_axis_mask"
    value {
      i: 2
    }
  }
}
node {
  name: "output_layer/fully_connected/weights/Initializer/random_uniform/shape"
  op: "Const"
  attr {
    key: "_class"
    value {
      list {
        s: "loc:@output_layer/fully_connected/weights"
      }
    }
  }
  attr {
    key: "_output_shapes"
    value {
      list {
        shape {
          dim {
            size: 2
          }
        }
      }
    }
  }
  attr {
    key: "dtype"
    value {
      type: DT_INT32
    }
  }
  attr {
    key: "value"
    value {
      tensor {
        dtype: DT_INT32
        tensor_shape {
          dim {
            size: 2
          }
        }
        tensor_content: "\200\000\000\000\n\000\000\000"
      }
    }
  }
}
node {
  name: "output_layer/fully_connected/weights/Initializer/random_uniform/min"
  op: "Const"
  attr {
    key: "_class"
    value {
      list {
        s: "loc:@output_layer/fully_connected/weights"
      }
    }
  }
  attr {
    key: "_output_shapes"
    value {
      list {
        shape {
        }
      }
    }
  }
  attr {
    key: "dtype"
    value {
      type: DT_FLOAT
    }
  }
  attr {
    key: "value"
    value {
      tensor {
        dtype: DT_FLOAT
        tensor_shape {
        }
        float_val: -0.20851440727710724
      }
    }
  }
}
node {
  name: "output_layer/fully_connected/weights/Initializer/random_uniform/max"
  op: "Const"
  attr {
    key: "_class"
    value {
      list {
        s: "loc:@output_layer/fully_connected/weights"
      }
    }
  }
  attr {
    key: "_output_shapes"
    value {
      list {
        shape {
        }
      }
    }
  }
  attr {
    key: "dtype"
    value {
      type: DT_FLOAT
    }
  }
  attr {
    key: "value"
    value {
      tensor {
        dtype: DT_FLOAT
        tensor_shape {
        }
        float_val: 0.20851440727710724
      }
    }
  }
}
node {
  name: "output_layer/fully_connected/weights/Initializer/random_uniform/RandomUniform"
  op: "RandomUniform"
  input: "output_layer/fully_connected/weights/Initializer/random_uniform/shape"
  attr {
    key: "T"
    value {
      type: DT_INT32
    }
  }
  attr {
    key: "_class"
    value {
      list {
        s: "loc:@output_layer/fully_connected/weights"
      }
    }
  }
  attr {
    key: "_output_shapes"
    value {
      list {
        shape {
          dim {
            size: 128
          }
          dim {
            size: 10
          }
        }
      }
    }
  }
  attr {
    key: "dtype"
    value {
      type: DT_FLOAT
    }
  }
  attr {
    key: "seed"
    value {
      i: 0
    }
  }
  attr {
    key: "seed2"
    value {
      i: 0
    }
  }
}
node {
  name: "output_layer/fully_connected/weights/Initializer/random_uniform/sub"
  op: "Sub"
  input: "output_layer/fully_connected/weights/Initializer/random_uniform/max"
  input: "output_layer/fully_connected/weights/Initializer/random_uniform/min"
  attr {
    key: "T"
    value {
      type: DT_FLOAT
    }
  }
  attr {
    key: "_class"
    value {
      list {
        s: "loc:@output_layer/fully_connected/weights"
      }
    }
  }
  attr {
    key: "_output_shapes"
    value {
      list {
        shape {
        }
      }
    }
  }
}
node {
  name: "output_layer/fully_connected/weights/Initializer/random_uniform/mul"
  op: "Mul"
  input: "output_layer/fully_connected/weights/Initializer/random_uniform/RandomUniform"
  input: "output_layer/fully_connected/weights/Initializer/random_uniform/sub"
  attr {
    key: "T"
    value {
      type: DT_FLOAT
    }
  }
  attr {
    key: "_class"
    value {
      list {
        s: "loc:@output_layer/fully_connected/weights"
      }
    }
  }
  attr {
    key: "_output_shapes"
    value {
      list {
        shape {
          dim {
            size: 128
          }
          dim {
            size: 10
          }
        }
      }
    }
  }
}
node {
  name: "output_layer/fully_connected/weights/Initializer/random_uniform"
  op: "Add"
  input: "output_layer/fully_connected/weights/Initializer/random_uniform/mul"
  input: "output_layer/fully_connected/weights/Initializer/random_uniform/min"
  attr {
    key: "T"
    value {
      type: DT_FLOAT
    }
  }
  attr {
    key: "_class"
    value {
      list {
        s: "loc:@output_layer/fully_connected/weights"
      }
    }
  }
  attr {
    key: "_output_shapes"
    value {
      list {
        shape {
          dim {
            size: 128
          }
          dim {
            size: 10
          }
        }
      }
    }
  }
}
node {
  name: "output_layer/fully_connected/weights"
  op: "VariableV2"
  attr {
    key: "_class"
    value {
      list {
        s: "loc:@output_layer/fully_connected/weights"
      }
    }
  }
  attr {
    key: "_output_shapes"
    value {
      list {
        shape {
          dim {
            size: 128
          }
          dim {
            size: 10
          }
        }
      }
    }
  }
  attr {
    key: "container"
    value {
      s: ""
    }
  }
  attr {
    key: "dtype"
    value {
      type: DT_FLOAT
    }
  }
  attr {
    key: "shape"
    value {
      shape {
        dim {
          size: 128
        }
        dim {
          size: 10
        }
      }
    }
  }
  attr {
    key: "shared_name"
    value {
      s: ""
    }
  }
}
node {
  name: "output_layer/fully_connected/weights/Assign"
  op: "Assign"
  input: "output_layer/fully_connected/weights"
  input: "output_layer/fully_connected/weights/Initializer/random_uniform"
  attr {
    key: "T"
    value {
      type: DT_FLOAT
    }
  }
  attr {
    key: "_class"
    value {
      list {
        s: "loc:@output_layer/fully_connected/weights"
      }
    }
  }
  attr {
    key: "_output_shapes"
    value {
      list {
        shape {
          dim {
            size: 128
          }
          dim {
            size: 10
          }
        }
      }
    }
  }
  attr {
    key: "use_locking"
    value {
      b: true
    }
  }
  attr {
    key: "validate_shape"
    value {
      b: true
    }
  }
}
node {
  name: "output_layer/fully_connected/weights/read"
  op: "Identity"
  input: "output_layer/fully_connected/weights"
  attr {
    key: "T"
    value {
      type: DT_FLOAT
    }
  }
  attr {
    key: "_class"
    value {
      list {
        s: "loc:@output_layer/fully_connected/weights"
      }
    }
  }
  attr {
    key: "_output_shapes"
    value {
      list {
        shape {
          dim {
            size: 128
          }
          dim {
            size: 10
          }
        }
      }
    }
  }
}
node {
  name: "output_layer/fully_connected/biases/Initializer/zeros"
  op: "Const"
  attr {
    key: "_class"
    value {
      list {
        s: "loc:@output_layer/fully_connected/biases"
      }
    }
  }
  attr {
    key: "_output_shapes"
    value {
      list {
        shape {
          dim {
            size: 10
          }
        }
      }
    }
  }
  attr {
    key: "dtype"
    value {
      type: DT_FLOAT
    }
  }
  attr {
    key: "value"
    value {
      tensor {
        dtype: DT_FLOAT
        tensor_shape {
          dim {
            size: 10
          }
        }
        float_val: 0.0
      }
    }
  }
}
node {
  name: "output_layer/fully_connected/biases"
  op: "VariableV2"
  attr {
    key: "_class"
    value {
      list {
        s: "loc:@output_layer/fully_connected/biases"
      }
    }
  }
  attr {
    key: "_output_shapes"
    value {
      list {
        shape {
          dim {
            size: 10
          }
        }
      }
    }
  }
  attr {
    key: "container"
    value {
      s: ""
    }
  }
  attr {
    key: "dtype"
    value {
      type: DT_FLOAT
    }
  }
  attr {
    key: "shape"
    value {
      shape {
        dim {
          size: 10
        }
      }
    }
  }
  attr {
    key: "shared_name"
    value {
      s: ""
    }
  }
}
node {
  name: "output_layer/fully_connected/biases/Assign"
  op: "Assign"
  input: "output_layer/fully_connected/biases"
  input: "output_layer/fully_connected/biases/Initializer/zeros"
  attr {
    key: "T"
    value {
      type: DT_FLOAT
    }
  }
  attr {
    key: "_class"
    value {
      list {
        s: "loc:@output_layer/fully_connected/biases"
      }
    }
  }
  attr {
    key: "_output_shapes"
    value {
      list {
        shape {
          dim {
            size: 10
          }
        }
      }
    }
  }
  attr {
    key: "use_locking"
    value {
      b: true
    }
  }
  attr {
    key: "validate_shape"
    value {
      b: true
    }
  }
}
node {
  name: "output_layer/fully_connected/biases/read"
  op: "Identity"
  input: "output_layer/fully_connected/biases"
  attr {
    key: "T"
    value {
      type: DT_FLOAT
    }
  }
  attr {
    key: "_class"
    value {
      list {
        s: "loc:@output_layer/fully_connected/biases"
      }
    }
  }
  attr {
    key: "_output_shapes"
    value {
      list {
        shape {
          dim {
            size: 10
          }
        }
      }
    }
  }
}
node {
  name: "output_layer/fully_connected/MatMul"
  op: "MatMul"
  input: "lstm_layer/strided_slice"
  input: "output_layer/fully_connected/weights/read"
  attr {
    key: "T"
    value {
      type: DT_FLOAT
    }
  }
  attr {
    key: "_output_shapes"
    value {
      list {
        shape {
          dim {
            size: -1
          }
          dim {
            size: 10
          }
        }
      }
    }
  }
  attr {
    key: "transpose_a"
    value {
      b: false
    }
  }
  attr {
    key: "transpose_b"
    value {
      b: false
    }
  }
}
node {
  name: "output_layer/fully_connected/BiasAdd"
  op: "BiasAdd"
  input: "output_layer/fully_connected/MatMul"
  input: "output_layer/fully_connected/biases/read"
  attr {
    key: "T"
    value {
      type: DT_FLOAT
    }
  }
  attr {
    key: "_output_shapes"
    value {
      list {
        shape {
          dim {
            size: -1
          }
          dim {
            size: 10
          }
        }
      }
    }
  }
  attr {
    key: "data_format"
    value {
      s: "NHWC"
    }
  }
}
node {
  name: "output_layer/Reshape/shape"
  op: "Const"
  attr {
    key: "_output_shapes"
    value {
      list {
        shape {
          dim {
            size: 1
          }
        }
      }
    }
  }
  attr {
    key: "dtype"
    value {
      type: DT_INT32
    }
  }
  attr {
    key: "value"
    value {
      tensor {
        dtype: DT_INT32
        tensor_shape {
          dim {
            size: 1
          }
        }
        int_val: -1
      }
    }
  }
}
node {
  name: "output_layer/Reshape"
  op: "Reshape"
  input: "output_layer/fully_connected/BiasAdd"
  input: "output_layer/Reshape/shape"
  attr {
    key: "T"
    value {
      type: DT_FLOAT
    }
  }
  attr {
    key: "Tshape"
    value {
      type: DT_INT32
    }
  }
  attr {
    key: "_output_shapes"
    value {
      list {
        shape {
          dim {
            size: -1
          }
        }
      }
    }
  }
}
node {
  name: "train_op_layer/SparseSoftmaxCrossEntropyWithLogits/Shape"
  op: "Shape"
  input: "Placeholder_1"
  attr {
    key: "T"
    value {
      type: DT_INT32
    }
  }
  attr {
    key: "_output_shapes"
    value {
      list {
        shape {
          dim {
            size: 1
          }
        }
      }
    }
  }
  attr {
    key: "out_type"
    value {
      type: DT_INT32
    }
  }
}
node {
  name: "train_op_layer/SparseSoftmaxCrossEntropyWithLogits/SparseSoftmaxCrossEntropyWithLogits"
  op: "SparseSoftmaxCrossEntropyWithLogits"
  input: "output_layer/fully_connected/BiasAdd"
  input: "Placeholder_1"
  attr {
    key: "T"
    value {
      type: DT_FLOAT
    }
  }
  attr {
    key: "Tlabels"
    value {
      type: DT_INT32
    }
  }
  attr {
    key: "_output_shapes"
    value {
      list {
        shape {
          dim {
            size: -1
          }
        }
        shape {
          dim {
            size: -1
          }
          dim {
            size: 10
          }
        }
      }
    }
  }
}
node {
  name: "train_op_layer/Const"
  op: "Const"
  attr {
    key: "_output_shapes"
    value {
      list {
        shape {
          dim {
            size: 1
          }
        }
      }
    }
  }
  attr {
    key: "dtype"
    value {
      type: DT_INT32
    }
  }
  attr {
    key: "value"
    value {
      tensor {
        dtype: DT_INT32
        tensor_shape {
          dim {
            size: 1
          }
        }
        int_val: 0
      }
    }
  }
}
node {
  name: "train_op_layer/Mean"
  op: "Mean"
  input: "train_op_layer/SparseSoftmaxCrossEntropyWithLogits/SparseSoftmaxCrossEntropyWithLogits"
  input: "train_op_layer/Const"
  attr {
    key: "T"
    value {
      type: DT_FLOAT
    }
  }
  attr {
    key: "Tidx"
    value {
      type: DT_INT32
    }
  }
  attr {
    key: "_output_shapes"
    value {
      list {
        shape {
        }
      }
    }
  }
  attr {
    key: "keep_dims"
    value {
      b: false
    }
  }
}
node {
  name: "train_op_layer/gradients/Shape"
  op: "Const"
  attr {
    key: "_output_shapes"
    value {
      list {
        shape {
          dim {
          }
        }
      }
    }
  }
  attr {
    key: "dtype"
    value {
      type: DT_INT32
    }
  }
  attr {
    key: "value"
    value {
      tensor {
        dtype: DT_INT32
        tensor_shape {
          dim {
          }
        }
      }
    }
  }
}
node {
  name: "train_op_layer/gradients/grad_ys_0"
  op: "Const"
  attr {
    key: "_output_shapes"
    value {
      list {
        shape {
        }
      }
    }
  }
  attr {
    key: "dtype"
    value {
      type: DT_FLOAT
    }
  }
  attr {
    key: "value"
    value {
      tensor {
        dtype: DT_FLOAT
        tensor_shape {
        }
        float_val: 1.0
      }
    }
  }
}
node {
  name: "train_op_layer/gradients/Fill"
  op: "Fill"
  input: "train_op_layer/gradients/Shape"
  input: "train_op_layer/gradients/grad_ys_0"
  attr {
    key: "T"
    value {
      type: DT_FLOAT
    }
  }
  attr {
    key: "_output_shapes"
    value {
      list {
        shape {
        }
      }
    }
  }
  attr {
    key: "index_type"
    value {
      type: DT_INT32
    }
  }
}
node {
  name: "train_op_layer/gradients/f_count"
  op: "Const"
  attr {
    key: "_output_shapes"
    value {
      list {
        shape {
        }
      }
    }
  }
  attr {
    key: "dtype"
    value {
      type: DT_INT32
    }
  }
  attr {
    key: "value"
    value {
      tensor {
        dtype: DT_INT32
        tensor_shape {
        }
        int_val: 0
      }
    }
  }
}
node {
  name: "train_op_layer/gradients/f_count_1"
  op: "Enter"
  input: "train_op_layer/gradients/f_count"
  attr {
    key: "T"
    value {
      type: DT_INT32
    }
  }
  attr {
    key: "_output_shapes"
    value {
      list {
        shape {
        }
      }
    }
  }
  attr {
    key: "frame_name"
    value {
      s: "lstm_layer/rnn/while/while_context"
    }
  }
  attr {
    key: "is_constant"
    value {
      b: false
    }
  }
  attr {
    key: "parallel_iterations"
    value {
      i: 32
    }
  }
}
node {
  name: "train_op_layer/gradients/Merge"
  op: "Merge"
  input: "train_op_layer/gradients/f_count_1"
  input: "train_op_layer/gradients/NextIteration"
  attr {
    key: "N"
    value {
      i: 2
    }
  }
  attr {
    key: "T"
    value {
      type: DT_INT32
    }
  }
  attr {
    key: "_output_shapes"
    value {
      list {
        shape {
        }
        shape {
        }
      }
    }
  }
}
node {
  name: "train_op_layer/gradients/Switch"
  op: "Switch"
  input: "train_op_layer/gradients/Merge"
  input: "lstm_layer/rnn/while/LoopCond"
  attr {
    key: "T"
    value {
      type: DT_INT32
    }
  }
  attr {
    key: "_output_shapes"
    value {
      list {
        shape {
        }
        shape {
        }
      }
    }
  }
}
node {
  name: "train_op_layer/gradients/Add/y"
  op: "Const"
  input: "^lstm_layer/rnn/while/Identity"
  attr {
    key: "_output_shapes"
    value {
      list {
        shape {
        }
      }
    }
  }
  attr {
    key: "dtype"
    value {
      type: DT_INT32
    }
  }
  attr {
    key: "value"
    value {
      tensor {
        dtype: DT_INT32
        tensor_shape {
        }
        int_val: 1
      }
    }
  }
}
node {
  name: "train_op_layer/gradients/Add"
  op: "Add"
  input: "train_op_layer/gradients/Switch:1"
  input: "train_op_layer/gradients/Add/y"
  attr {
    key: "T"
    value {
      type: DT_INT32
    }
  }
  attr {
    key: "_output_shapes"
    value {
      list {
        shape {
        }
      }
    }
  }
}
node {
  name: "train_op_layer/gradients/NextIteration"
  op: "NextIteration"
  input: "train_op_layer/gradients/Add"
  input: "^train_op_layer/gradients/lstm_layer/rnn/while/TensorArrayWrite/TensorArrayWriteV3_grad/TensorArrayReadV3/StackPushV2"
  input: "^train_op_layer/gradients/lstm_layer/rnn/while/rnn/multi_rnn_cell/cell_0/gru_cell/MatMul_1_grad/MatMul_1/StackPushV2"
  input: "^train_op_layer/gradients/lstm_layer/rnn/while/rnn/multi_rnn_cell/cell_0/gru_cell/MatMul_grad/MatMul_1/StackPushV2"
  input: "^train_op_layer/gradients/lstm_layer/rnn/while/rnn/multi_rnn_cell/cell_0/gru_cell/Sigmoid_grad/SigmoidGrad/StackPushV2"
  input: "^train_op_layer/gradients/lstm_layer/rnn/while/rnn/multi_rnn_cell/cell_0/gru_cell/add_grad/BroadcastGradientArgs/StackPushV2"
  input: "^train_op_layer/gradients/lstm_layer/rnn/while/rnn/multi_rnn_cell/cell_0/gru_cell/add_grad/BroadcastGradientArgs/StackPushV2_1"
  input: "^train_op_layer/gradients/lstm_layer/rnn/while/rnn/multi_rnn_cell/cell_0/gru_cell/concat_1_grad/ShapeN/StackPushV2"
  input: "^train_op_layer/gradients/lstm_layer/rnn/while/rnn/multi_rnn_cell/cell_0/gru_cell/concat_1_grad/ShapeN/StackPushV2_1"
  input: "^train_op_layer/gradients/lstm_layer/rnn/while/rnn/multi_rnn_cell/cell_0/gru_cell/mul_1_grad/BroadcastGradientArgs/StackPushV2"
  input: "^train_op_layer/gradients/lstm_layer/rnn/while/rnn/multi_rnn_cell/cell_0/gru_cell/mul_1_grad/BroadcastGradientArgs/StackPushV2_1"
  input: "^train_op_layer/gradients/lstm_layer/rnn/while/rnn/multi_rnn_cell/cell_0/gru_cell/mul_1_grad/Mul/StackPushV2"
  input: "^train_op_layer/gradients/lstm_layer/rnn/while/rnn/multi_rnn_cell/cell_0/gru_cell/mul_1_grad/Mul_1/StackPushV2"
  input: "^train_op_layer/gradients/lstm_layer/rnn/while/rnn/multi_rnn_cell/cell_0/gru_cell/mul_2_grad/BroadcastGradientArgs/StackPushV2"
  input: "^train_op_layer/gradients/lstm_layer/rnn/while/rnn/multi_rnn_cell/cell_0/gru_cell/mul_2_grad/BroadcastGradientArgs/StackPushV2_1"
  input: "^train_op_layer/gradients/lstm_layer/rnn/while/rnn/multi_rnn_cell/cell_0/gru_cell/mul_2_grad/Mul/StackPushV2"
  input: "^train_op_layer/gradients/lstm_layer/rnn/while/rnn/multi_rnn_cell/cell_0/gru_cell/mul_2_grad/Mul_1/StackPushV2"
  input: "^train_op_layer/gradients/lstm_layer/rnn/while/rnn/multi_rnn_cell/cell_0/gru_cell/mul_grad/BroadcastGradientArgs/StackPushV2"
  input: "^train_op_layer/gradients/lstm_layer/rnn/while/rnn/multi_rnn_cell/cell_0/gru_cell/mul_grad/BroadcastGradientArgs/StackPushV2_1"
  input: "^train_op_layer/gradients/lstm_layer/rnn/while/rnn/multi_rnn_cell/cell_0/gru_cell/mul_grad/Mul_1/StackPushV2"
  input: "^train_op_layer/gradients/lstm_layer/rnn/while/rnn/multi_rnn_cell/cell_0/gru_cell/sub_grad/BroadcastGradientArgs/StackPushV2"
  attr {
    key: "T"
    value {
      type: DT_INT32
    }
  }
  attr {
    key: "_output_shapes"
    value {
      list {
        shape {
        }
      }
    }
  }
}
node {
  name: "train_op_layer/gradients/f_count_2"
  op: "Exit"
  input: "train_op_layer/gradients/Switch"
  attr {
    key: "T"
    value {
      type: DT_INT32
    }
  }
  attr {
    key: "_output_shapes"
    value {
      list {
        shape {
        }
      }
    }
  }
}
node {
  name: "train_op_layer/gradients/b_count"
  op: "Const"
  attr {
    key: "_output_shapes"
    value {
      list {
        shape {
        }
      }
    }
  }
  attr {
    key: "dtype"
    value {
      type: DT_INT32
    }
  }
  attr {
    key: "value"
    value {
      tensor {
        dtype: DT_INT32
        tensor_shape {
        }
        int_val: 1
      }
    }
  }
}
node {
  name: "train_op_layer/gradients/b_count_1"
  op: "Enter"
  input: "train_op_layer/gradients/f_count_2"
  attr {
    key: "T"
    value {
      type: DT_INT32
    }
  }
  attr {
    key: "_output_shapes"
    value {
      list {
        shape {
        }
      }
    }
  }
  attr {
    key: "frame_name"
    value {
      s: "train_op_layer/gradients/lstm_layer/rnn/while/while_context"
    }
  }
  attr {
    key: "is_constant"
    value {
      b: false
    }
  }
  attr {
    key: "parallel_iterations"
    value {
      i: 32
    }
  }
}
node {
  name: "train_op_layer/gradients/Merge_1"
  op: "Merge"
  input: "train_op_layer/gradients/b_count_1"
  input: "train_op_layer/gradients/NextIteration_1"
  attr {
    key: "N"
    value {
      i: 2
    }
  }
  attr {
    key: "T"
    value {
      type: DT_INT32
    }
  }
  attr {
    key: "_output_shapes"
    value {
      list {
        shape {
        }
        shape {
        }
      }
    }
  }
}
node {
  name: "train_op_layer/gradients/GreaterEqual"
  op: "GreaterEqual"
  input: "train_op_layer/gradients/Merge_1"
  input: "train_op_layer/gradients/GreaterEqual/Enter"
  attr {
    key: "T"
    value {
      type: DT_INT32
    }
  }
  attr {
    key: "_output_shapes"
    value {
      list {
        shape {
        }
      }
    }
  }
}
node {
  name: "train_op_layer/gradients/GreaterEqual/Enter"
  op: "Enter"
  input: "train_op_layer/gradients/b_count"
  attr {
    key: "T"
    value {
      type: DT_INT32
    }
  }
  attr {
    key: "_output_shapes"
    value {
      list {
        shape {
        }
      }
    }
  }
  attr {
    key: "frame_name"
    value {
      s: "train_op_layer/gradients/lstm_layer/rnn/while/while_context"
    }
  }
  attr {
    key: "is_constant"
    value {
      b: true
    }
  }
  attr {
    key: "parallel_iterations"
    value {
      i: 32
    }
  }
}
node {
  name: "train_op_layer/gradients/b_count_2"
  op: "LoopCond"
  input: "train_op_layer/gradients/GreaterEqual"
  attr {
    key: "_output_shapes"
    value {
      list {
        shape {
        }
      }
    }
  }
}
node {
  name: "train_op_layer/gradients/Switch_1"
  op: "Switch"
  input: "train_op_layer/gradients/Merge_1"
  input: "train_op_layer/gradients/b_count_2"
  attr {
    key: "T"
    value {
      type: DT_INT32
    }
  }
  attr {
    key: "_output_shapes"
    value {
      list {
        shape {
        }
        shape {
        }
      }
    }
  }
}
node {
  name: "train_op_layer/gradients/Sub"
  op: "Sub"
  input: "train_op_layer/gradients/Switch_1:1"
  input: "train_op_layer/gradients/GreaterEqual/Enter"
  attr {
    key: "T"
    value {
      type: DT_INT32
    }
  }
  attr {
    key: "_output_shapes"
    value {
      list {
        shape {
        }
      }
    }
  }
}
node {
  name: "train_op_layer/gradients/NextIteration_1"
  op: "NextIteration"
  input: "train_op_layer/gradients/Sub"
  input: "^train_op_layer/gradients/lstm_layer/rnn/while/TensorArrayWrite/TensorArrayWriteV3_grad/TensorArrayReadV3/b_sync"
  attr {
    key: "T"
    value {
      type: DT_INT32
    }
  }
  attr {
    key: "_output_shapes"
    value {
      list {
        shape {
        }
      }
    }
  }
}
node {
  name: "train_op_layer/gradients/b_count_3"
  op: "Exit"
  input: "train_op_layer/gradients/Switch_1"
  attr {
    key: "T"
    value {
      type: DT_INT32
    }
  }
  attr {
    key: "_output_shapes"
    value {
      list {
        shape {
        }
      }
    }
  }
}
node {
  name: "train_op_layer/gradients/train_op_layer/Mean_grad/Reshape/shape"
  op: "Const"
  attr {
    key: "_output_shapes"
    value {
      list {
        shape {
          dim {
            size: 1
          }
        }
      }
    }
  }
  attr {
    key: "dtype"
    value {
      type: DT_INT32
    }
  }
  attr {
    key: "value"
    value {
      tensor {
        dtype: DT_INT32
        tensor_shape {
          dim {
            size: 1
          }
        }
        int_val: 1
      }
    }
  }
}
node {
  name: "train_op_layer/gradients/train_op_layer/Mean_grad/Reshape"
  op: "Reshape"
  input: "train_op_layer/gradients/Fill"
  input: "train_op_layer/gradients/train_op_layer/Mean_grad/Reshape/shape"
  attr {
    key: "T"
    value {
      type: DT_FLOAT
    }
  }
  attr {
    key: "Tshape"
    value {
      type: DT_INT32
    }
  }
  attr {
    key: "_output_shapes"
    value {
      list {
        shape {
          dim {
            size: 1
          }
        }
      }
    }
  }
}
node {
  name: "train_op_layer/gradients/train_op_layer/Mean_grad/Shape"
  op: "Shape"
  input: "train_op_layer/SparseSoftmaxCrossEntropyWithLogits/SparseSoftmaxCrossEntropyWithLogits"
  attr {
    key: "T"
    value {
      type: DT_FLOAT
    }
  }
  attr {
    key: "_output_shapes"
    value {
      list {
        shape {
          dim {
            size: 1
          }
        }
      }
    }
  }
  attr {
    key: "out_type"
    value {
      type: DT_INT32
    }
  }
}
node {
  name: "train_op_layer/gradients/train_op_layer/Mean_grad/Tile"
  op: "Tile"
  input: "train_op_layer/gradients/train_op_layer/Mean_grad/Reshape"
  input: "train_op_layer/gradients/train_op_layer/Mean_grad/Shape"
  attr {
    key: "T"
    value {
      type: DT_FLOAT
    }
  }
  attr {
    key: "Tmultiples"
    value {
      type: DT_INT32
    }
  }
  attr {
    key: "_output_shapes"
    value {
      list {
        shape {
          dim {
            size: -1
          }
        }
      }
    }
  }
}
node {
  name: "train_op_layer/gradients/train_op_layer/Mean_grad/Shape_1"
  op: "Shape"
  input: "train_op_layer/SparseSoftmaxCrossEntropyWithLogits/SparseSoftmaxCrossEntropyWithLogits"
  attr {
    key: "T"
    value {
      type: DT_FLOAT
    }
  }
  attr {
    key: "_output_shapes"
    value {
      list {
        shape {
          dim {
            size: 1
          }
        }
      }
    }
  }
  attr {
    key: "out_type"
    value {
      type: DT_INT32
    }
  }
}
node {
  name: "train_op_layer/gradients/train_op_layer/Mean_grad/Shape_2"
  op: "Const"
  attr {
    key: "_output_shapes"
    value {
      list {
        shape {
          dim {
          }
        }
      }
    }
  }
  attr {
    key: "dtype"
    value {
      type: DT_INT32
    }
  }
  attr {
    key: "value"
    value {
      tensor {
        dtype: DT_INT32
        tensor_shape {
          dim {
          }
        }
      }
    }
  }
}
node {
  name: "train_op_layer/gradients/train_op_layer/Mean_grad/Const"
  op: "Const"
  attr {
    key: "_output_shapes"
    value {
      list {
        shape {
          dim {
            size: 1
          }
        }
      }
    }
  }
  attr {
    key: "dtype"
    value {
      type: DT_INT32
    }
  }
  attr {
    key: "value"
    value {
      tensor {
        dtype: DT_INT32
        tensor_shape {
          dim {
            size: 1
          }
        }
        int_val: 0
      }
    }
  }
}
node {
  name: "train_op_layer/gradients/train_op_layer/Mean_grad/Prod"
  op: "Prod"
  input: "train_op_layer/gradients/train_op_layer/Mean_grad/Shape_1"
  input: "train_op_layer/gradients/train_op_layer/Mean_grad/Const"
  attr {
    key: "T"
    value {
      type: DT_INT32
    }
  }
  attr {
    key: "Tidx"
    value {
      type: DT_INT32
    }
  }
  attr {
    key: "_output_shapes"
    value {
      list {
        shape {
        }
      }
    }
  }
  attr {
    key: "keep_dims"
    value {
      b: false
    }
  }
}
node {
  name: "train_op_layer/gradients/train_op_layer/Mean_grad/Const_1"
  op: "Const"
  attr {
    key: "_output_shapes"
    value {
      list {
        shape {
          dim {
            size: 1
          }
        }
      }
    }
  }
  attr {
    key: "dtype"
    value {
      type: DT_INT32
    }
  }
  attr {
    key: "value"
    value {
      tensor {
        dtype: DT_INT32
        tensor_shape {
          dim {
            size: 1
          }
        }
        int_val: 0
      }
    }
  }
}
node {
  name: "train_op_layer/gradients/train_op_layer/Mean_grad/Prod_1"
  op: "Prod"
  input: "train_op_layer/gradients/train_op_layer/Mean_grad/Shape_2"
  input: "train_op_layer/gradients/train_op_layer/Mean_grad/Const_1"
  attr {
    key: "T"
    value {
      type: DT_INT32
    }
  }
  attr {
    key: "Tidx"
    value {
      type: DT_INT32
    }
  }
  attr {
    key: "_output_shapes"
    value {
      list {
        shape {
        }
      }
    }
  }
  attr {
    key: "keep_dims"
    value {
      b: false
    }
  }
}
node {
  name: "train_op_layer/gradients/train_op_layer/Mean_grad/Maximum/y"
  op: "Const"
  attr {
    key: "_output_shapes"
    value {
      list {
        shape {
        }
      }
    }
  }
  attr {
    key: "dtype"
    value {
      type: DT_INT32
    }
  }
  attr {
    key: "value"
    value {
      tensor {
        dtype: DT_INT32
        tensor_shape {
        }
        int_val: 1
      }
    }
  }
}
node {
  name: "train_op_layer/gradients/train_op_layer/Mean_grad/Maximum"
  op: "Maximum"
  input: "train_op_layer/gradients/train_op_layer/Mean_grad/Prod_1"
  input: "train_op_layer/gradients/train_op_layer/Mean_grad/Maximum/y"
  attr {
    key: "T"
    value {
      type: DT_INT32
    }
  }
  attr {
    key: "_output_shapes"
    value {
      list {
        shape {
        }
      }
    }
  }
}
node {
  name: "train_op_layer/gradients/train_op_layer/Mean_grad/floordiv"
  op: "FloorDiv"
  input: "train_op_layer/gradients/train_op_layer/Mean_grad/Prod"
  input: "train_op_layer/gradients/train_op_layer/Mean_grad/Maximum"
  attr {
    key: "T"
    value {
      type: DT_INT32
    }
  }
  attr {
    key: "_output_shapes"
    value {
      list {
        shape {
        }
      }
    }
  }
}
node {
  name: "train_op_layer/gradients/train_op_layer/Mean_grad/Cast"
  op: "Cast"
  input: "train_op_layer/gradients/train_op_layer/Mean_grad/floordiv"
  attr {
    key: "DstT"
    value {
      type: DT_FLOAT
    }
  }
  attr {
    key: "SrcT"
    value {
      type: DT_INT32
    }
  }
  attr {
    key: "Truncate"
    value {
      b: false
    }
  }
  attr {
    key: "_output_shapes"
    value {
      list {
        shape {
        }
      }
    }
  }
}
node {
  name: "train_op_layer/gradients/train_op_layer/Mean_grad/truediv"
  op: "RealDiv"
  input: "train_op_layer/gradients/train_op_layer/Mean_grad/Tile"
  input: "train_op_layer/gradients/train_op_layer/Mean_grad/Cast"
  attr {
    key: "T"
    value {
      type: DT_FLOAT
    }
  }
  attr {
    key: "_output_shapes"
    value {
      list {
        shape {
          dim {
            size: -1
          }
        }
      }
    }
  }
}
node {
  name: "train_op_layer/gradients/zeros_like"
  op: "ZerosLike"
  input: "train_op_layer/SparseSoftmaxCrossEntropyWithLogits/SparseSoftmaxCrossEntropyWithLogits:1"
  attr {
    key: "T"
    value {
      type: DT_FLOAT
    }
  }
  attr {
    key: "_output_shapes"
    value {
      list {
        shape {
          dim {
            size: -1
          }
          dim {
            size: 10
          }
        }
      }
    }
  }
}
node {
  name: "train_op_layer/gradients/train_op_layer/SparseSoftmaxCrossEntropyWithLogits/SparseSoftmaxCrossEntropyWithLogits_grad/PreventGradient"
  op: "PreventGradient"
  input: "train_op_layer/SparseSoftmaxCrossEntropyWithLogits/SparseSoftmaxCrossEntropyWithLogits:1"
  attr {
    key: "T"
    value {
      type: DT_FLOAT
    }
  }
  attr {
    key: "_output_shapes"
    value {
      list {
        shape {
          dim {
            size: -1
          }
          dim {
            size: 10
          }
        }
      }
    }
  }
  attr {
    key: "message"
    value {
      s: "Currently there is no way to take the second derivative of sparse_softmax_cross_entropy_with_logits due to the fused implementation\'s interaction with tf.gradients()"
    }
  }
}
node {
  name: "train_op_layer/gradients/train_op_layer/SparseSoftmaxCrossEntropyWithLogits/SparseSoftmaxCrossEntropyWithLogits_grad/ExpandDims/dim"
  op: "Const"
  attr {
    key: "_output_shapes"
    value {
      list {
        shape {
        }
      }
    }
  }
  attr {
    key: "dtype"
    value {
      type: DT_INT32
    }
  }
  attr {
    key: "value"
    value {
      tensor {
        dtype: DT_INT32
        tensor_shape {
        }
        int_val: -1
      }
    }
  }
}
node {
  name: "train_op_layer/gradients/train_op_layer/SparseSoftmaxCrossEntropyWithLogits/SparseSoftmaxCrossEntropyWithLogits_grad/ExpandDims"
  op: "ExpandDims"
  input: "train_op_layer/gradients/train_op_layer/Mean_grad/truediv"
  input: "train_op_layer/gradients/train_op_layer/SparseSoftmaxCrossEntropyWithLogits/SparseSoftmaxCrossEntropyWithLogits_grad/ExpandDims/dim"
  attr {
    key: "T"
    value {
      type: DT_FLOAT
    }
  }
  attr {
    key: "Tdim"
    value {
      type: DT_INT32
    }
  }
  attr {
    key: "_output_shapes"
    value {
      list {
        shape {
          dim {
            size: -1
          }
          dim {
            size: 1
          }
        }
      }
    }
  }
}
node {
  name: "train_op_layer/gradients/train_op_layer/SparseSoftmaxCrossEntropyWithLogits/SparseSoftmaxCrossEntropyWithLogits_grad/mul"
  op: "Mul"
  input: "train_op_layer/gradients/train_op_layer/SparseSoftmaxCrossEntropyWithLogits/SparseSoftmaxCrossEntropyWithLogits_grad/ExpandDims"
  input: "train_op_layer/gradients/train_op_layer/SparseSoftmaxCrossEntropyWithLogits/SparseSoftmaxCrossEntropyWithLogits_grad/PreventGradient"
  attr {
    key: "T"
    value {
      type: DT_FLOAT
    }
  }
  attr {
    key: "_output_shapes"
    value {
      list {
        shape {
          dim {
            size: -1
          }
          dim {
            size: 10
          }
        }
      }
    }
  }
}
node {
  name: "train_op_layer/gradients/output_layer/fully_connected/BiasAdd_grad/BiasAddGrad"
  op: "BiasAddGrad"
  input: "train_op_layer/gradients/train_op_layer/SparseSoftmaxCrossEntropyWithLogits/SparseSoftmaxCrossEntropyWithLogits_grad/mul"
  attr {
    key: "T"
    value {
      type: DT_FLOAT
    }
  }
  attr {
    key: "_output_shapes"
    value {
      list {
        shape {
          dim {
            size: 10
          }
        }
      }
    }
  }
  attr {
    key: "data_format"
    value {
      s: "NHWC"
    }
  }
}
node {
  name: "train_op_layer/gradients/output_layer/fully_connected/BiasAdd_grad/tuple/group_deps"
  op: "NoOp"
  input: "^train_op_layer/gradients/output_layer/fully_connected/BiasAdd_grad/BiasAddGrad"
  input: "^train_op_layer/gradients/train_op_layer/SparseSoftmaxCrossEntropyWithLogits/SparseSoftmaxCrossEntropyWithLogits_grad/mul"
}
node {
  name: "train_op_layer/gradients/output_layer/fully_connected/BiasAdd_grad/tuple/control_dependency"
  op: "Identity"
  input: "train_op_layer/gradients/train_op_layer/SparseSoftmaxCrossEntropyWithLogits/SparseSoftmaxCrossEntropyWithLogits_grad/mul"
  input: "^train_op_layer/gradients/output_layer/fully_connected/BiasAdd_grad/tuple/group_deps"
  attr {
    key: "T"
    value {
      type: DT_FLOAT
    }
  }
  attr {
    key: "_class"
    value {
      list {
        s: "loc:@train_op_layer/gradients/train_op_layer/SparseSoftmaxCrossEntropyWithLogits/SparseSoftmaxCrossEntropyWithLogits_grad/mul"
      }
    }
  }
  attr {
    key: "_output_shapes"
    value {
      list {
        shape {
          dim {
            size: -1
          }
          dim {
            size: 10
          }
        }
      }
    }
  }
}
node {
  name: "train_op_layer/gradients/output_layer/fully_connected/BiasAdd_grad/tuple/control_dependency_1"
  op: "Identity"
  input: "train_op_layer/gradients/output_layer/fully_connected/BiasAdd_grad/BiasAddGrad"
  input: "^train_op_layer/gradients/output_layer/fully_connected/BiasAdd_grad/tuple/group_deps"
  attr {
    key: "T"
    value {
      type: DT_FLOAT
    }
  }
  attr {
    key: "_class"
    value {
      list {
        s: "loc:@train_op_layer/gradients/output_layer/fully_connected/BiasAdd_grad/BiasAddGrad"
      }
    }
  }
  attr {
    key: "_output_shapes"
    value {
      list {
        shape {
          dim {
            size: 10
          }
        }
      }
    }
  }
}
node {
  name: "train_op_layer/gradients/output_layer/fully_connected/MatMul_grad/MatMul"
  op: "MatMul"
  input: "train_op_layer/gradients/output_layer/fully_connected/BiasAdd_grad/tuple/control_dependency"
  input: "output_layer/fully_connected/weights/read"
  attr {
    key: "T"
    value {
      type: DT_FLOAT
    }
  }
  attr {
    key: "_output_shapes"
    value {
      list {
        shape {
          dim {
            size: -1
          }
          dim {
            size: 128
          }
        }
      }
    }
  }
  attr {
    key: "transpose_a"
    value {
      b: false
    }
  }
  attr {
    key: "transpose_b"
    value {
      b: true
    }
  }
}
node {
  name: "train_op_layer/gradients/output_layer/fully_connected/MatMul_grad/MatMul_1"
  op: "MatMul"
  input: "lstm_layer/strided_slice"
  input: "train_op_layer/gradients/output_layer/fully_connected/BiasAdd_grad/tuple/control_dependency"
  attr {
    key: "T"
    value {
      type: DT_FLOAT
    }
  }
  attr {
    key: "_output_shapes"
    value {
      list {
        shape {
          dim {
            size: 128
          }
          dim {
            size: 10
          }
        }
      }
    }
  }
  attr {
    key: "transpose_a"
    value {
      b: true
    }
  }
  attr {
    key: "transpose_b"
    value {
      b: false
    }
  }
}
node {
  name: "train_op_layer/gradients/output_layer/fully_connected/MatMul_grad/tuple/group_deps"
  op: "NoOp"
  input: "^train_op_layer/gradients/output_layer/fully_connected/MatMul_grad/MatMul"
  input: "^train_op_layer/gradients/output_layer/fully_connected/MatMul_grad/MatMul_1"
}
node {
  name: "train_op_layer/gradients/output_layer/fully_connected/MatMul_grad/tuple/control_dependency"
  op: "Identity"
  input: "train_op_layer/gradients/output_layer/fully_connected/MatMul_grad/MatMul"
  input: "^train_op_layer/gradients/output_layer/fully_connected/MatMul_grad/tuple/group_deps"
  attr {
    key: "T"
    value {
      type: DT_FLOAT
    }
  }
  attr {
    key: "_class"
    value {
      list {
        s: "loc:@train_op_layer/gradients/output_layer/fully_connected/MatMul_grad/MatMul"
      }
    }
  }
  attr {
    key: "_output_shapes"
    value {
      list {
        shape {
          dim {
            size: -1
          }
          dim {
            size: 128
          }
        }
      }
    }
  }
}
node {
  name: "train_op_layer/gradients/output_layer/fully_connected/MatMul_grad/tuple/control_dependency_1"
  op: "Identity"
  input: "train_op_layer/gradients/output_layer/fully_connected/MatMul_grad/MatMul_1"
  input: "^train_op_layer/gradients/output_layer/fully_connected/MatMul_grad/tuple/group_deps"
  attr {
    key: "T"
    value {
      type: DT_FLOAT
    }
  }
  attr {
    key: "_class"
    value {
      list {
        s: "loc:@train_op_layer/gradients/output_layer/fully_connected/MatMul_grad/MatMul_1"
      }
    }
  }
  attr {
    key: "_output_shapes"
    value {
      list {
        shape {
          dim {
            size: 128
          }
          dim {
            size: 10
          }
        }
      }
    }
  }
}
node {
  name: "train_op_layer/gradients/lstm_layer/strided_slice_grad/Shape"
  op: "Shape"
  input: "lstm_layer/rnn/transpose_1"
  attr {
    key: "T"
    value {
      type: DT_FLOAT
    }
  }
  attr {
    key: "_output_shapes"
    value {
      list {
        shape {
          dim {
            size: 3
          }
        }
      }
    }
  }
  attr {
    key: "out_type"
    value {
      type: DT_INT32
    }
  }
}
node {
  name: "train_op_layer/gradients/lstm_layer/strided_slice_grad/StridedSliceGrad"
  op: "StridedSliceGrad"
  input: "train_op_layer/gradients/lstm_layer/strided_slice_grad/Shape"
  input: "lstm_layer/strided_slice/stack"
  input: "lstm_layer/strided_slice/stack_1"
  input: "lstm_layer/strided_slice/stack_2"
  input: "train_op_layer/gradients/output_layer/fully_connected/MatMul_grad/tuple/control_dependency"
  attr {
    key: "Index"
    value {
      type: DT_INT32
    }
  }
  attr {
    key: "T"
    value {
      type: DT_FLOAT
    }
  }
  attr {
    key: "_output_shapes"
    value {
      list {
        shape {
          dim {
            size: -1
          }
          dim {
            size: 50
          }
          dim {
            size: 128
          }
        }
      }
    }
  }
  attr {
    key: "begin_mask"
    value {
      i: 1
    }
  }
  attr {
    key: "ellipsis_mask"
    value {
      i: 0
    }
  }
  attr {
    key: "end_mask"
    value {
      i: 1
    }
  }
  attr {
    key: "new_axis_mask"
    value {
      i: 0
    }
  }
  attr {
    key: "shrink_axis_mask"
    value {
      i: 2
    }
  }
}
node {
  name: "train_op_layer/gradients/lstm_layer/rnn/transpose_1_grad/InvertPermutation"
  op: "InvertPermutation"
  input: "lstm_layer/rnn/concat_2"
  attr {
    key: "T"
    value {
      type: DT_INT32
    }
  }
  attr {
    key: "_output_shapes"
    value {
      list {
        shape {
          dim {
            size: 3
          }
        }
      }
    }
  }
}
node {
  name: "train_op_layer/gradients/lstm_layer/rnn/transpose_1_grad/transpose"
  op: "Transpose"
  input: "train_op_layer/gradients/lstm_layer/strided_slice_grad/StridedSliceGrad"
  input: "train_op_layer/gradients/lstm_layer/rnn/transpose_1_grad/InvertPermutation"
  attr {
    key: "T"
    value {
      type: DT_FLOAT
    }
  }
  attr {
    key: "Tperm"
    value {
      type: DT_INT32
    }
  }
  attr {
    key: "_output_shapes"
    value {
      list {
        shape {
          dim {
            size: 50
          }
          dim {
            size: -1
          }
          dim {
            size: 128
          }
        }
      }
    }
  }
}
node {
  name: "train_op_layer/gradients/lstm_layer/rnn/TensorArrayStack/TensorArrayGatherV3_grad/TensorArrayGrad/TensorArrayGradV3"
  op: "TensorArrayGradV3"
  input: "lstm_layer/rnn/TensorArray"
  input: "lstm_layer/rnn/while/Exit_2"
  attr {
    key: "_class"
    value {
      list {
        s: "loc:@lstm_layer/rnn/TensorArray"
      }
    }
  }
  attr {
    key: "_output_shapes"
    value {
      list {
        shape {
          dim {
            size: 2
          }
        }
        shape {
        }
      }
    }
  }
  attr {
    key: "source"
    value {
      s: "train_op_layer/gradients"
    }
  }
}
node {
  name: "train_op_layer/gradients/lstm_layer/rnn/TensorArrayStack/TensorArrayGatherV3_grad/TensorArrayGrad/gradient_flow"
  op: "Identity"
  input: "lstm_layer/rnn/while/Exit_2"
  input: "^train_op_layer/gradients/lstm_layer/rnn/TensorArrayStack/TensorArrayGatherV3_grad/TensorArrayGrad/TensorArrayGradV3"
  attr {
    key: "T"
    value {
      type: DT_FLOAT
    }
  }
  attr {
    key: "_class"
    value {
      list {
        s: "loc:@lstm_layer/rnn/TensorArray"
      }
    }
  }
  attr {
    key: "_output_shapes"
    value {
      list {
        shape {
        }
      }
    }
  }
}
node {
  name: "train_op_layer/gradients/lstm_layer/rnn/TensorArrayStack/TensorArrayGatherV3_grad/TensorArrayScatter/TensorArrayScatterV3"
  op: "TensorArrayScatterV3"
  input: "train_op_layer/gradients/lstm_layer/rnn/TensorArrayStack/TensorArrayGatherV3_grad/TensorArrayGrad/TensorArrayGradV3"
  input: "lstm_layer/rnn/TensorArrayStack/range"
  input: "train_op_layer/gradients/lstm_layer/rnn/transpose_1_grad/transpose"
  input: "train_op_layer/gradients/lstm_layer/rnn/TensorArrayStack/TensorArrayGatherV3_grad/TensorArrayGrad/gradient_flow"
  attr {
    key: "T"
    value {
      type: DT_FLOAT
    }
  }
  attr {
    key: "_output_shapes"
    value {
      list {
        shape {
        }
      }
    }
  }
}
node {
  name: "train_op_layer/gradients/zeros_like_1"
  op: "ZerosLike"
  input: "lstm_layer/rnn/while/Exit_3"
  attr {
    key: "T"
    value {
      type: DT_FLOAT
    }
  }
  attr {
    key: "_output_shapes"
    value {
      list {
        shape {
          dim {
            size: -1
          }
          dim {
            size: 128
          }
        }
      }
    }
  }
}
node {
  name: "train_op_layer/gradients/lstm_layer/rnn/while/Exit_2_grad/b_exit"
  op: "Enter"
  input: "train_op_layer/gradients/lstm_layer/rnn/TensorArrayStack/TensorArrayGatherV3_grad/TensorArrayScatter/TensorArrayScatterV3"
  attr {
    key: "T"
    value {
      type: DT_FLOAT
    }
  }
  attr {
    key: "_output_shapes"
    value {
      list {
        shape {
        }
      }
    }
  }
  attr {
    key: "frame_name"
    value {
      s: "train_op_layer/gradients/lstm_layer/rnn/while/while_context"
    }
  }
  attr {
    key: "is_constant"
    value {
      b: false
    }
  }
  attr {
    key: "parallel_iterations"
    value {
      i: 32
    }
  }
}
node {
  name: "train_op_layer/gradients/lstm_layer/rnn/while/Exit_3_grad/b_exit"
  op: "Enter"
  input: "train_op_layer/gradients/zeros_like_1"
  attr {
    key: "T"
    value {
      type: DT_FLOAT
    }
  }
  attr {
    key: "_output_shapes"
    value {
      list {
        shape {
          dim {
            size: -1
          }
          dim {
            size: 128
          }
        }
      }
    }
  }
  attr {
    key: "frame_name"
    value {
      s: "train_op_layer/gradients/lstm_layer/rnn/while/while_context"
    }
  }
  attr {
    key: "is_constant"
    value {
      b: false
    }
  }
  attr {
    key: "parallel_iterations"
    value {
      i: 32
    }
  }
}
node {
  name: "train_op_layer/gradients/lstm_layer/rnn/while/Switch_2_grad/b_switch"
  op: "Merge"
  input: "train_op_layer/gradients/lstm_layer/rnn/while/Exit_2_grad/b_exit"
  input: "train_op_layer/gradients/lstm_layer/rnn/while/Switch_2_grad_1/NextIteration"
  attr {
    key: "N"
    value {
      i: 2
    }
  }
  attr {
    key: "T"
    value {
      type: DT_FLOAT
    }
  }
  attr {
    key: "_output_shapes"
    value {
      list {
        shape {
        }
        shape {
        }
      }
    }
  }
}
node {
  name: "train_op_layer/gradients/lstm_layer/rnn/while/Switch_3_grad/b_switch"
  op: "Merge"
  input: "train_op_layer/gradients/lstm_layer/rnn/while/Exit_3_grad/b_exit"
  input: "train_op_layer/gradients/lstm_layer/rnn/while/Switch_3_grad_1/NextIteration"
  attr {
    key: "N"
    value {
      i: 2
    }
  }
  attr {
    key: "T"
    value {
      type: DT_FLOAT
    }
  }
  attr {
    key: "_output_shapes"
    value {
      list {
        shape {
          dim {
            size: -1
          }
          dim {
            size: 128
          }
        }
        shape {
        }
      }
    }
  }
}
node {
  name: "train_op_layer/gradients/lstm_layer/rnn/while/Merge_2_grad/Switch"
  op: "Switch"
  input: "train_op_layer/gradients/lstm_layer/rnn/while/Switch_2_grad/b_switch"
  input: "train_op_layer/gradients/b_count_2"
  attr {
    key: "T"
    value {
      type: DT_FLOAT
    }
  }
  attr {
    key: "_class"
    value {
      list {
        s: "loc:@train_op_layer/gradients/lstm_layer/rnn/while/Switch_2_grad/b_switch"
      }
    }
  }
  attr {
    key: "_output_shapes"
    value {
      list {
        shape {
        }
        shape {
        }
      }
    }
  }
}
node {
  name: "train_op_layer/gradients/lstm_layer/rnn/while/Merge_2_grad/tuple/group_deps"
  op: "NoOp"
  input: "^train_op_layer/gradients/lstm_layer/rnn/while/Merge_2_grad/Switch"
}
node {
  name: "train_op_layer/gradients/lstm_layer/rnn/while/Merge_2_grad/tuple/control_dependency"
  op: "Identity"
  input: "train_op_layer/gradients/lstm_layer/rnn/while/Merge_2_grad/Switch"
  input: "^train_op_layer/gradients/lstm_layer/rnn/while/Merge_2_grad/tuple/group_deps"
  attr {
    key: "T"
    value {
      type: DT_FLOAT
    }
  }
  attr {
    key: "_class"
    value {
      list {
        s: "loc:@train_op_layer/gradients/lstm_layer/rnn/while/Switch_2_grad/b_switch"
      }
    }
  }
  attr {
    key: "_output_shapes"
    value {
      list {
        shape {
        }
      }
    }
  }
}
node {
  name: "train_op_layer/gradients/lstm_layer/rnn/while/Merge_2_grad/tuple/control_dependency_1"
  op: "Identity"
  input: "train_op_layer/gradients/lstm_layer/rnn/while/Merge_2_grad/Switch:1"
  input: "^train_op_layer/gradients/lstm_layer/rnn/while/Merge_2_grad/tuple/group_deps"
  attr {
    key: "T"
    value {
      type: DT_FLOAT
    }
  }
  attr {
    key: "_class"
    value {
      list {
        s: "loc:@train_op_layer/gradients/lstm_layer/rnn/while/Switch_2_grad/b_switch"
      }
    }
  }
  attr {
    key: "_output_shapes"
    value {
      list {
        shape {
        }
      }
    }
  }
}
node {
  name: "train_op_layer/gradients/lstm_layer/rnn/while/Merge_3_grad/Switch"
  op: "Switch"
  input: "train_op_layer/gradients/lstm_layer/rnn/while/Switch_3_grad/b_switch"
  input: "train_op_layer/gradients/b_count_2"
  attr {
    key: "T"
    value {
      type: DT_FLOAT
    }
  }
  attr {
    key: "_class"
    value {
      list {
        s: "loc:@train_op_layer/gradients/lstm_layer/rnn/while/Switch_3_grad/b_switch"
      }
    }
  }
  attr {
    key: "_output_shapes"
    value {
      list {
        shape {
          dim {
            size: -1
          }
          dim {
            size: 128
          }
        }
        shape {
          dim {
            size: -1
          }
          dim {
            size: 128
          }
        }
      }
    }
  }
}
node {
  name: "train_op_layer/gradients/lstm_layer/rnn/while/Merge_3_grad/tuple/group_deps"
  op: "NoOp"
  input: "^train_op_layer/gradients/lstm_layer/rnn/while/Merge_3_grad/Switch"
}
node {
  name: "train_op_layer/gradients/lstm_layer/rnn/while/Merge_3_grad/tuple/control_dependency"
  op: "Identity"
  input: "train_op_layer/gradients/lstm_layer/rnn/while/Merge_3_grad/Switch"
  input: "^train_op_layer/gradients/lstm_layer/rnn/while/Merge_3_grad/tuple/group_deps"
  attr {
    key: "T"
    value {
      type: DT_FLOAT
    }
  }
  attr {
    key: "_class"
    value {
      list {
        s: "loc:@train_op_layer/gradients/lstm_layer/rnn/while/Switch_3_grad/b_switch"
      }
    }
  }
  attr {
    key: "_output_shapes"
    value {
      list {
        shape {
          dim {
            size: -1
          }
          dim {
            size: 128
          }
        }
      }
    }
  }
}
node {
  name: "train_op_layer/gradients/lstm_layer/rnn/while/Merge_3_grad/tuple/control_dependency_1"
  op: "Identity"
  input: "train_op_layer/gradients/lstm_layer/rnn/while/Merge_3_grad/Switch:1"
  input: "^train_op_layer/gradients/lstm_layer/rnn/while/Merge_3_grad/tuple/group_deps"
  attr {
    key: "T"
    value {
      type: DT_FLOAT
    }
  }
  attr {
    key: "_class"
    value {
      list {
        s: "loc:@train_op_layer/gradients/lstm_layer/rnn/while/Switch_3_grad/b_switch"
      }
    }
  }
  attr {
    key: "_output_shapes"
    value {
      list {
        shape {
          dim {
            size: -1
          }
          dim {
            size: 128
          }
        }
      }
    }
  }
}
node {
  name: "train_op_layer/gradients/lstm_layer/rnn/while/Enter_2_grad/Exit"
  op: "Exit"
  input: "train_op_layer/gradients/lstm_layer/rnn/while/Merge_2_grad/tuple/control_dependency"
  attr {
    key: "T"
    value {
      type: DT_FLOAT
    }
  }
  attr {
    key: "_output_shapes"
    value {
      list {
        shape {
        }
      }
    }
  }
}
node {
  name: "train_op_layer/gradients/lstm_layer/rnn/while/Enter_3_grad/Exit"
  op: "Exit"
  input: "train_op_layer/gradients/lstm_layer/rnn/while/Merge_3_grad/tuple/control_dependency"
  attr {
    key: "T"
    value {
      type: DT_FLOAT
    }
  }
  attr {
    key: "_output_shapes"
    value {
      list {
        shape {
          dim {
            size: -1
          }
          dim {
            size: 128
          }
        }
      }
    }
  }
}
node {
  name: "train_op_layer/gradients/lstm_layer/rnn/while/TensorArrayWrite/TensorArrayWriteV3_grad/TensorArrayGrad/TensorArrayGradV3"
  op: "TensorArrayGradV3"
  input: "train_op_layer/gradients/lstm_layer/rnn/while/TensorArrayWrite/TensorArrayWriteV3_grad/TensorArrayGrad/TensorArrayGradV3/Enter"
  input: "train_op_layer/gradients/lstm_layer/rnn/while/Merge_2_grad/tuple/control_dependency_1"
  attr {
    key: "_class"
    value {
      list {
        s: "loc:@lstm_layer/rnn/while/rnn/multi_rnn_cell/cell_0/gru_cell/add"
      }
    }
  }
  attr {
    key: "_output_shapes"
    value {
      list {
        shape {
          dim {
            size: 2
          }
        }
        shape {
        }
      }
    }
  }
  attr {
    key: "source"
    value {
      s: "train_op_layer/gradients"
    }
  }
}
node {
  name: "train_op_layer/gradients/lstm_layer/rnn/while/TensorArrayWrite/TensorArrayWriteV3_grad/TensorArrayGrad/TensorArrayGradV3/Enter"
  op: "Enter"
  input: "lstm_layer/rnn/TensorArray"
  attr {
    key: "T"
    value {
      type: DT_RESOURCE
    }
  }
  attr {
    key: "_class"
    value {
      list {
        s: "loc:@lstm_layer/rnn/while/rnn/multi_rnn_cell/cell_0/gru_cell/add"
      }
    }
  }
  attr {
    key: "_output_shapes"
    value {
      list {
        shape {
          dim {
            size: 2
          }
        }
      }
    }
  }
  attr {
    key: "frame_name"
    value {
      s: "train_op_layer/gradients/lstm_layer/rnn/while/while_context"
    }
  }
  attr {
    key: "is_constant"
    value {
      b: true
    }
  }
  attr {
    key: "parallel_iterations"
    value {
      i: 32
    }
  }
}
node {
  name: "train_op_layer/gradients/lstm_layer/rnn/while/TensorArrayWrite/TensorArrayWriteV3_grad/TensorArrayGrad/gradient_flow"
  op: "Identity"
  input: "train_op_layer/gradients/lstm_layer/rnn/while/Merge_2_grad/tuple/control_dependency_1"
  input: "^train_op_layer/gradients/lstm_layer/rnn/while/TensorArrayWrite/TensorArrayWriteV3_grad/TensorArrayGrad/TensorArrayGradV3"
  attr {
    key: "T"
    value {
      type: DT_FLOAT
    }
  }
  attr {
    key: "_class"
    value {
      list {
        s: "loc:@lstm_layer/rnn/while/rnn/multi_rnn_cell/cell_0/gru_cell/add"
      }
    }
  }
  attr {
    key: "_output_shapes"
    value {
      list {
        shape {
        }
      }
    }
  }
}
node {
  name: "train_op_layer/gradients/lstm_layer/rnn/while/TensorArrayWrite/TensorArrayWriteV3_grad/TensorArrayReadV3"
  op: "TensorArrayReadV3"
  input: "train_op_layer/gradients/lstm_layer/rnn/while/TensorArrayWrite/TensorArrayWriteV3_grad/TensorArrayGrad/TensorArrayGradV3"
  input: "train_op_layer/gradients/lstm_layer/rnn/while/TensorArrayWrite/TensorArrayWriteV3_grad/TensorArrayReadV3/StackPopV2"
  input: "train_op_layer/gradients/lstm_layer/rnn/while/TensorArrayWrite/TensorArrayWriteV3_grad/TensorArrayGrad/gradient_flow"
  attr {
    key: "_output_shapes"
    value {
      list {
        shape {
          dim {
            size: -1
          }
          dim {
            size: 128
          }
        }
      }
    }
  }
  attr {
    key: "dtype"
    value {
      type: DT_FLOAT
    }
  }
}
node {
  name: "train_op_layer/gradients/lstm_layer/rnn/while/TensorArrayWrite/TensorArrayWriteV3_grad/TensorArrayReadV3/Const"
  op: "Const"
  attr {
    key: "_class"
    value {
      list {
        s: "loc:@lstm_layer/rnn/while/Identity_1"
      }
    }
  }
  attr {
    key: "_output_shapes"
    value {
      list {
        shape {
        }
      }
    }
  }
  attr {
    key: "dtype"
    value {
      type: DT_INT32
    }
  }
  attr {
    key: "value"
    value {
      tensor {
        dtype: DT_INT32
        tensor_shape {
        }
        int_val: -1
      }
    }
  }
}
node {
  name: "train_op_layer/gradients/lstm_layer/rnn/while/TensorArrayWrite/TensorArrayWriteV3_grad/TensorArrayReadV3/f_acc"
  op: "StackV2"
  input: "train_op_layer/gradients/lstm_layer/rnn/while/TensorArrayWrite/TensorArrayWriteV3_grad/TensorArrayReadV3/Const"
  attr {
    key: "_class"
    value {
      list {
        s: "loc:@lstm_layer/rnn/while/Identity_1"
      }
    }
  }
  attr {
    key: "_output_shapes"
    value {
      list {
        shape {
          dim {
            size: 2
          }
        }
      }
    }
  }
  attr {
    key: "elem_type"
    value {
      type: DT_INT32
    }
  }
  attr {
    key: "stack_name"
    value {
      s: ""
    }
  }
}
node {
  name: "train_op_layer/gradients/lstm_layer/rnn/while/TensorArrayWrite/TensorArrayWriteV3_grad/TensorArrayReadV3/Enter"
  op: "Enter"
  input: "train_op_layer/gradients/lstm_layer/rnn/while/TensorArrayWrite/TensorArrayWriteV3_grad/TensorArrayReadV3/f_acc"
  attr {
    key: "T"
    value {
      type: DT_RESOURCE
    }
  }
  attr {
    key: "_output_shapes"
    value {
      list {
        shape {
          dim {
            size: 2
          }
        }
      }
    }
  }
  attr {
    key: "frame_name"
    value {
      s: "lstm_layer/rnn/while/while_context"
    }
  }
  attr {
    key: "is_constant"
    value {
      b: true
    }
  }
  attr {
    key: "parallel_iterations"
    value {
      i: 32
    }
  }
}
node {
  name: "train_op_layer/gradients/lstm_layer/rnn/while/TensorArrayWrite/TensorArrayWriteV3_grad/TensorArrayReadV3/StackPushV2"
  op: "StackPushV2"
  input: "train_op_layer/gradients/lstm_layer/rnn/while/TensorArrayWrite/TensorArrayWriteV3_grad/TensorArrayReadV3/Enter"
  input: "lstm_layer/rnn/while/Identity_1"
  input: "^train_op_layer/gradients/Add"
  attr {
    key: "T"
    value {
      type: DT_INT32
    }
  }
  attr {
    key: "_output_shapes"
    value {
      list {
        shape {
        }
      }
    }
  }
  attr {
    key: "swap_memory"
    value {
      b: false
    }
  }
}
node {
  name: "train_op_layer/gradients/lstm_layer/rnn/while/TensorArrayWrite/TensorArrayWriteV3_grad/TensorArrayReadV3/StackPopV2"
  op: "StackPopV2"
  input: "train_op_layer/gradients/lstm_layer/rnn/while/TensorArrayWrite/TensorArrayWriteV3_grad/TensorArrayReadV3/StackPopV2/Enter"
  input: "^train_op_layer/gradients/Sub"
  attr {
    key: "_output_shapes"
    value {
      list {
        shape {
        }
      }
    }
  }
  attr {
    key: "elem_type"
    value {
      type: DT_INT32
    }
  }
}
node {
  name: "train_op_layer/gradients/lstm_layer/rnn/while/TensorArrayWrite/TensorArrayWriteV3_grad/TensorArrayReadV3/StackPopV2/Enter"
  op: "Enter"
  input: "train_op_layer/gradients/lstm_layer/rnn/while/TensorArrayWrite/TensorArrayWriteV3_grad/TensorArrayReadV3/f_acc"
  attr {
    key: "T"
    value {
      type: DT_RESOURCE
    }
  }
  attr {
    key: "_output_shapes"
    value {
      list {
        shape {
          dim {
            size: 2
          }
        }
      }
    }
  }
  attr {
    key: "frame_name"
    value {
      s: "train_op_layer/gradients/lstm_layer/rnn/while/while_context"
    }
  }
  attr {
    key: "is_constant"
    value {
      b: true
    }
  }
  attr {
    key: "parallel_iterations"
    value {
      i: 32
    }
  }
}
node {
  name: "train_op_layer/gradients/lstm_layer/rnn/while/TensorArrayWrite/TensorArrayWriteV3_grad/TensorArrayReadV3/b_sync"
  op: "ControlTrigger"
  input: "^train_op_layer/gradients/lstm_layer/rnn/while/TensorArrayWrite/TensorArrayWriteV3_grad/TensorArrayReadV3/StackPopV2"
  input: "^train_op_layer/gradients/lstm_layer/rnn/while/rnn/multi_rnn_cell/cell_0/gru_cell/MatMul_1_grad/MatMul_1/StackPopV2"
  input: "^train_op_layer/gradients/lstm_layer/rnn/while/rnn/multi_rnn_cell/cell_0/gru_cell/MatMul_grad/MatMul_1/StackPopV2"
  input: "^train_op_layer/gradients/lstm_layer/rnn/while/rnn/multi_rnn_cell/cell_0/gru_cell/Sigmoid_grad/SigmoidGrad/StackPopV2"
  input: "^train_op_layer/gradients/lstm_layer/rnn/while/rnn/multi_rnn_cell/cell_0/gru_cell/add_grad/BroadcastGradientArgs/StackPopV2"
  input: "^train_op_layer/gradients/lstm_layer/rnn/while/rnn/multi_rnn_cell/cell_0/gru_cell/add_grad/BroadcastGradientArgs/StackPopV2_1"
  input: "^train_op_layer/gradients/lstm_layer/rnn/while/rnn/multi_rnn_cell/cell_0/gru_cell/concat_1_grad/ShapeN/StackPopV2"
  input: "^train_op_layer/gradients/lstm_layer/rnn/while/rnn/multi_rnn_cell/cell_0/gru_cell/concat_1_grad/ShapeN/StackPopV2_1"
  input: "^train_op_layer/gradients/lstm_layer/rnn/while/rnn/multi_rnn_cell/cell_0/gru_cell/mul_1_grad/BroadcastGradientArgs/StackPopV2"
  input: "^train_op_layer/gradients/lstm_layer/rnn/while/rnn/multi_rnn_cell/cell_0/gru_cell/mul_1_grad/BroadcastGradientArgs/StackPopV2_1"
  input: "^train_op_layer/gradients/lstm_layer/rnn/while/rnn/multi_rnn_cell/cell_0/gru_cell/mul_1_grad/Mul/StackPopV2"
  input: "^train_op_layer/gradients/lstm_layer/rnn/while/rnn/multi_rnn_cell/cell_0/gru_cell/mul_1_grad/Mul_1/StackPopV2"
  input: "^train_op_layer/gradients/lstm_layer/rnn/while/rnn/multi_rnn_cell/cell_0/gru_cell/mul_2_grad/BroadcastGradientArgs/StackPopV2"
  input: "^train_op_layer/gradients/lstm_layer/rnn/while/rnn/multi_rnn_cell/cell_0/gru_cell/mul_2_grad/BroadcastGradientArgs/StackPopV2_1"
  input: "^train_op_layer/gradients/lstm_layer/rnn/while/rnn/multi_rnn_cell/cell_0/gru_cell/mul_2_grad/Mul/StackPopV2"
  input: "^train_op_layer/gradients/lstm_layer/rnn/while/rnn/multi_rnn_cell/cell_0/gru_cell/mul_2_grad/Mul_1/StackPopV2"
  input: "^train_op_layer/gradients/lstm_layer/rnn/while/rnn/multi_rnn_cell/cell_0/gru_cell/mul_grad/BroadcastGradientArgs/StackPopV2"
  input: "^train_op_layer/gradients/lstm_layer/rnn/while/rnn/multi_rnn_cell/cell_0/gru_cell/mul_grad/BroadcastGradientArgs/StackPopV2_1"
  input: "^train_op_layer/gradients/lstm_layer/rnn/while/rnn/multi_rnn_cell/cell_0/gru_cell/mul_grad/Mul_1/StackPopV2"
  input: "^train_op_layer/gradients/lstm_layer/rnn/while/rnn/multi_rnn_cell/cell_0/gru_cell/sub_grad/BroadcastGradientArgs/StackPopV2"
}
node {
  name: "train_op_layer/gradients/lstm_layer/rnn/while/TensorArrayWrite/TensorArrayWriteV3_grad/tuple/group_deps"
  op: "NoOp"
  input: "^train_op_layer/gradients/lstm_layer/rnn/while/Merge_2_grad/tuple/control_dependency_1"
  input: "^train_op_layer/gradients/lstm_layer/rnn/while/TensorArrayWrite/TensorArrayWriteV3_grad/TensorArrayReadV3"
}
node {
  name: "train_op_layer/gradients/lstm_layer/rnn/while/TensorArrayWrite/TensorArrayWriteV3_grad/tuple/control_dependency"
  op: "Identity"
…
        string_val: "train_op_layer/output_layer/fully_connected/biases/Adam_1"
        string_val: "train_op_layer/output_layer/fully_connected/weights/Adam"
        string_val: "train_op_layer/output_layer/fully_connected/weights/Adam_1"
      }
    }
  }
}
node {
  name: "save/RestoreV2/shape_and_slices"
  op: "Const"
  device: "/device:CPU:0"
  attr {
    key: "_output_shapes"
    value {
      list {
        shape {
          dim {
            size: 21
          }
        }
      }
    }
  }
  attr {
    key: "dtype"
    value {
      type: DT_STRING
    }
  }
  attr {
    key: "value"
    value {
      tensor {
        dtype: DT_STRING
        tensor_shape {
          dim {
            size: 21
          }
        }
        string_val: ""
        string_val: ""
        string_val: ""
        string_val: ""
        string_val: ""
        string_val: ""
        string_val: ""
        string_val: ""
        string_val: ""
        string_val: ""
        string_val: ""
        string_val: ""
        string_val: ""
        string_val: ""
        string_val: ""
        string_val: ""
        string_val: ""
        string_val: ""
        string_val: ""
        string_val: ""
        string_val: ""
      }
    }
  }
}
node {
  name: "save/RestoreV2"
  op: "RestoreV2"
  input: "save/Const"
  input: "save/RestoreV2/tensor_names"
  input: "save/RestoreV2/shape_and_slices"
  device: "/device:CPU:0"
  attr {
    key: "_output_shapes"
    value {
      list {
        shape {
          unknown_rank: true
        }
        shape {
          unknown_rank: true
        }
        shape {
          unknown_rank: true
        }
        shape {
          unknown_rank: true
        }
        shape {
          unknown_rank: true
        }
        shape {
          unknown_rank: true
        }
        shape {
          unknown_rank: true
        }
        shape {
          unknown_rank: true
        }
        shape {
          unknown_rank: true
        }
        shape {
          unknown_rank: true
        }
        shape {
          unknown_rank: true
        }
        shape {
          unknown_rank: true
        }
        shape {
          unknown_rank: true
        }
        shape {
          unknown_rank: true
        }
        shape {
          unknown_rank: true
        }
        shape {
          unknown_rank: true
        }
        shape {
          unknown_rank: true
        }
        shape {
          unknown_rank: true
        }
        shape {
          unknown_rank: true
        }
        shape {
          unknown_rank: true
        }
        shape {
          unknown_rank: true
        }
      }
    }
  }
  attr {
    key: "dtypes"
    value {
      list {
        type: DT_INT64
        type: DT_FLOAT
        type: DT_FLOAT
        type: DT_FLOAT
        type: DT_FLOAT
        type: DT_FLOAT
        type: DT_FLOAT
        type: DT_FLOAT
        type: DT_FLOAT
        type: DT_FLOAT
        type: DT_FLOAT
        type: DT_FLOAT
        type: DT_FLOAT
        type: DT_FLOAT
        type: DT_FLOAT
        type: DT_FLOAT
        type: DT_FLOAT
        type: DT_FLOAT
        type: DT_FLOAT
        type: DT_FLOAT
        type: DT_FLOAT
      }
    }
  }
}
node {
  name: "save/Assign"
  op: "Assign"
  input: "global_step"
  input: "save/RestoreV2"
  attr {
    key: "T"
    value {
      type: DT_INT64
    }
  }
  attr {
    key: "_class"
    value {
      list {
        s: "loc:@global_step"
      }
    }
  }
  attr {
    key: "_output_shapes"
    value {
      list {
        shape {
        }
      }
    }
  }
  attr {
    key: "use_locking"
    value {
      b: true
    }
  }
  attr {
    key: "validate_shape"
    value {
      b: true
    }
  }
}
node {
  name: "save/Assign_1"
  op: "Assign"
  input: "lstm_layer/rnn/multi_rnn_cell/cell_0/gru_cell/candidate/bias"
  input: "save/RestoreV2:1"
  attr {
    key: "T"
    value {
      type: DT_FLOAT
    }
  }
  attr {
    key: "_class"
    value {
      list {
        s: "loc:@lstm_layer/rnn/multi_rnn_cell/cell_0/gru_cell/candidate/bias"
      }
    }
  }
  attr {
    key: "_output_shapes"
    value {
      list {
        shape {
          dim {
            size: 128
          }
        }
      }
    }
  }
  attr {
    key: "use_locking"
    value {
      b: true
    }
  }
  attr {
    key: "validate_shape"
    value {
      b: true
    }
  }
}
node {
  name: "save/Assign_2"
  op: "Assign"
  input: "lstm_layer/rnn/multi_rnn_cell/cell_0/gru_cell/candidate/kernel"
  input: "save/RestoreV2:2"
  attr {
    key: "T"
    value {
      type: DT_FLOAT
    }
  }
  attr {
    key: "_class"
    value {
      list {
        s: "loc:@lstm_layer/rnn/multi_rnn_cell/cell_0/gru_cell/candidate/kernel"
      }
    }
  }
  attr {
    key: "_output_shapes"
    value {
      list {
        shape {
          dim {
            size: 134
          }
          dim {
            size: 128
          }
        }
      }
    }
  }
  attr {
    key: "use_locking"
    value {
      b: true
    }
  }
  attr {
    key: "validate_shape"
    value {
      b: true
    }
  }
}
node {
  name: "save/Assign_3"
  op: "Assign"
  input: "lstm_layer/rnn/multi_rnn_cell/cell_0/gru_cell/gates/bias"
  input: "save/RestoreV2:3"
  attr {
    key: "T"
    value {
      type: DT_FLOAT
    }
  }
  attr {
    key: "_class"
    value {
      list {
        s: "loc:@lstm_layer/rnn/multi_rnn_cell/cell_0/gru_cell/gates/bias"
      }
    }
  }
  attr {
    key: "_output_shapes"
    value {
      list {
        shape {
          dim {
            size: 256
          }
        }
      }
    }
  }
  attr {
    key: "use_locking"
    value {
      b: true
    }
  }
  attr {
    key: "validate_shape"
    value {
      b: true
    }
  }
}
node {
  name: "save/Assign_4"
  op: "Assign"
  input: "lstm_layer/rnn/multi_rnn_cell/cell_0/gru_cell/gates/kernel"
  input: "save/RestoreV2:4"
  attr {
    key: "T"
    value {
      type: DT_FLOAT
    }
  }
  attr {
    key: "_class"
    value {
      list {
        s: "loc:@lstm_layer/rnn/multi_rnn_cell/cell_0/gru_cell/gates/kernel"
      }
    }
  }
  attr {
    key: "_output_shapes"
    value {
      list {
        shape {
          dim {
            size: 134
          }
          dim {
            size: 256
          }
        }
      }
    }
  }
  attr {
    key: "use_locking"
    value {
      b: true
    }
  }
  attr {
    key: "validate_shape"
    value {
      b: true
    }
  }
}
node {
  name: "save/Assign_5"
  op: "Assign"
  input: "output_layer/fully_connected/biases"
  input: "save/RestoreV2:5"
  attr {
    key: "T"
    value {
      type: DT_FLOAT
    }
  }
  attr {
    key: "_class"
    value {
      list {
        s: "loc:@output_layer/fully_connected/biases"
      }
    }
  }
  attr {
    key: "_output_shapes"
    value {
      list {
        shape {
          dim {
            size: 10
          }
        }
      }
    }
  }
  attr {
    key: "use_locking"
    value {
      b: true
    }
  }
  attr {
    key: "validate_shape"
    value {
      b: true
    }
  }
}
node {
  name: "save/Assign_6"
  op: "Assign"
  input: "output_layer/fully_connected/weights"
  input: "save/RestoreV2:6"
  attr {
    key: "T"
    value {
      type: DT_FLOAT
    }
  }
  attr {
    key: "_class"
    value {
      list {
        s: "loc:@output_layer/fully_connected/weights"
      }
    }
  }
  attr {
    key: "_output_shapes"
    value {
      list {
        shape {
          dim {
            size: 128
          }
          dim {
            size: 10
          }
        }
      }
    }
  }
  attr {
    key: "use_locking"
    value {
      b: true
    }
  }
  attr {
    key: "validate_shape"
    value {
      b: true
    }
  }
}
node {
  name: "save/Assign_7"
  op: "Assign"
  input: "train_op_layer/beta1_power"
  input: "save/RestoreV2:7"
  attr {
    key: "T"
    value {
      type: DT_FLOAT
    }
  }
  attr {
    key: "_class"
    value {
      list {
        s: "loc:@lstm_layer/rnn/multi_rnn_cell/cell_0/gru_cell/candidate/bias"
      }
    }
  }
  attr {
    key: "_output_shapes"
    value {
      list {
        shape {
        }
      }
    }
  }
  attr {
    key: "use_locking"
    value {
      b: true
    }
  }
  attr {
    key: "validate_shape"
    value {
      b: true
    }
  }
}
node {
  name: "save/Assign_8"
  op: "Assign"
  input: "train_op_layer/beta2_power"
  input: "save/RestoreV2:8"
  attr {
    key: "T"
    value {
      type: DT_FLOAT
    }
  }
  attr {
    key: "_class"
    value {
      list {
        s: "loc:@lstm_layer/rnn/multi_rnn_cell/cell_0/gru_cell/candidate/bias"
      }
    }
  }
  attr {
    key: "_output_shapes"
    value {
      list {
        shape {
        }
      }
    }
  }
  attr {
    key: "use_locking"
    value {
      b: true
    }
  }
  attr {
    key: "validate_shape"
    value {
      b: true
    }
  }
}
node {
  name: "save/Assign_9"
  op: "Assign"
  input: "train_op_layer/lstm_layer/rnn/multi_rnn_cell/cell_0/gru_cell/candidate/bias/Adam"
  input: "save/RestoreV2:9"
  attr {
    key: "T"
    value {
      type: DT_FLOAT
    }
  }
  attr {
    key: "_class"
    value {
      list {
        s: "loc:@lstm_layer/rnn/multi_rnn_cell/cell_0/gru_cell/candidate/bias"
      }
    }
  }
  attr {
    key: "_output_shapes"
    value {
      list {
        shape {
          dim {
            size: 128
          }
        }
      }
    }
  }
  attr {
    key: "use_locking"
    value {
      b: true
    }
  }
  attr {
    key: "validate_shape"
    value {
      b: true
    }
  }
}
node {
  name: "save/Assign_10"
  op: "Assign"
  input: "train_op_layer/lstm_layer/rnn/multi_rnn_cell/cell_0/gru_cell/candidate/bias/Adam_1"
  input: "save/RestoreV2:10"
  attr {
    key: "T"
    value {
      type: DT_FLOAT
    }
  }
  attr {
    key: "_class"
    value {
      list {
        s: "loc:@lstm_layer/rnn/multi_rnn_cell/cell_0/gru_cell/candidate/bias"
      }
    }
  }
  attr {
    key: "_output_shapes"
    value {
      list {
        shape {
          dim {
            size: 128
          }
        }
      }
    }
  }
  attr {
    key: "use_locking"
    value {
      b: true
    }
  }
  attr {
    key: "validate_shape"
    value {
      b: true
    }
  }
}
node {
  name: "save/Assign_11"
  op: "Assign"
  input: "train_op_layer/lstm_layer/rnn/multi_rnn_cell/cell_0/gru_cell/candidate/kernel/Adam"
  input: "save/RestoreV2:11"
  attr {
    key: "T"
    value {
      type: DT_FLOAT
    }
  }
  attr {
    key: "_class"
    value {
      list {
        s: "loc:@lstm_layer/rnn/multi_rnn_cell/cell_0/gru_cell/candidate/kernel"
      }
    }
  }
  attr {
    key: "_output_shapes"
    value {
      list {
        shape {
          dim {
            size: 134
          }
          dim {
            size: 128
          }
        }
      }
    }
  }
  attr {
    key: "use_locking"
    value {
      b: true
    }
  }
  attr {
    key: "validate_shape"
    value {
      b: true
    }
  }
}
node {
  name: "save/Assign_12"
  op: "Assign"
  input: "train_op_layer/lstm_layer/rnn/multi_rnn_cell/cell_0/gru_cell/candidate/kernel/Adam_1"
  input: "save/RestoreV2:12"
  attr {
    key: "T"
    value {
      type: DT_FLOAT
    }
  }
  attr {
    key: "_class"
    value {
      list {
        s: "loc:@lstm_layer/rnn/multi_rnn_cell/cell_0/gru_cell/candidate/kernel"
      }
    }
  }
  attr {
    key: "_output_shapes"
    value {
      list {
        shape {
          dim {
            size: 134
          }
          dim {
            size: 128
          }
        }
      }
    }
  }
  attr {
    key: "use_locking"
    value {
      b: true
    }
  }
  attr {
    key: "validate_shape"
    value {
      b: true
    }
  }
}
node {
  name: "save/Assign_13"
  op: "Assign"
  input: "train_op_layer/lstm_layer/rnn/multi_rnn_cell/cell_0/gru_cell/gates/bias/Adam"
  input: "save/RestoreV2:13"
  attr {
    key: "T"
    value {
      type: DT_FLOAT
    }
  }
  attr {
    key: "_class"
    value {
      list {
        s: "loc:@lstm_layer/rnn/multi_rnn_cell/cell_0/gru_cell/gates/bias"
      }
    }
  }
  attr {
    key: "_output_shapes"
    value {
      list {
        shape {
          dim {
            size: 256
          }
        }
      }
    }
  }
  attr {
    key: "use_locking"
    value {
      b: true
    }
  }
  attr {
    key: "validate_shape"
    value {
      b: true
    }
  }
}
node {
  name: "save/Assign_14"
  op: "Assign"
  input: "train_op_layer/lstm_layer/rnn/multi_rnn_cell/cell_0/gru_cell/gates/bias/Adam_1"
  input: "save/RestoreV2:14"
  attr {
    key: "T"
    value {
      type: DT_FLOAT
    }
  }
  attr {
    key: "_class"
    value {
      list {
        s: "loc:@lstm_layer/rnn/multi_rnn_cell/cell_0/gru_cell/gates/bias"
      }
    }
  }
  attr {
    key: "_output_shapes"
    value {
      list {
        shape {
          dim {
            size: 256
          }
        }
      }
    }
  }
  attr {
    key: "use_locking"
    value {
      b: true
    }
  }
  attr {
    key: "validate_shape"
    value {
      b: true
    }
  }
}
node {
  name: "save/Assign_15"
  op: "Assign"
  input: "train_op_layer/lstm_layer/rnn/multi_rnn_cell/cell_0/gru_cell/gates/kernel/Adam"
  input: "save/RestoreV2:15"
  attr {
    key: "T"
    value {
      type: DT_FLOAT
    }
  }
  attr {
    key: "_class"
    value {
      list {
        s: "loc:@lstm_layer/rnn/multi_rnn_cell/cell_0/gru_cell/gates/kernel"
      }
    }
  }
  attr {
    key: "_output_shapes"
    value {
      list {
        shape {
          dim {
            size: 134
          }
          dim {
            size: 256
          }
        }
      }
    }
  }
  attr {
    key: "use_locking"
    value {
      b: true
    }
  }
  attr {
    key: "validate_shape"
    value {
      b: true
    }
  }
}
node {
  name: "save/Assign_16"
  op: "Assign"
  input: "train_op_layer/lstm_layer/rnn/multi_rnn_cell/cell_0/gru_cell/gates/kernel/Adam_1"
  input: "save/RestoreV2:16"
  attr {
    key: "T"
    value {
      type: DT_FLOAT
    }
  }
  attr {
    key: "_class"
    value {
      list {
        s: "loc:@lstm_layer/rnn/multi_rnn_cell/cell_0/gru_cell/gates/kernel"
      }
    }
  }
  attr {
    key: "_output_shapes"
    value {
      list {
        shape {
          dim {
            size: 134
          }
          dim {
            size: 256
          }
        }
      }
    }
  }
  attr {
    key: "use_locking"
    value {
      b: true
    }
  }
  attr {
    key: "validate_shape"
    value {
      b: true
    }
  }
}
node {
  name: "save/Assign_17"
  op: "Assign"
  input: "train_op_layer/output_layer/fully_connected/biases/Adam"
  input: "save/RestoreV2:17"
  attr {
    key: "T"
    value {
      type: DT_FLOAT
    }
  }
  attr {
    key: "_class"
    value {
      list {
        s: "loc:@output_layer/fully_connected/biases"
      }
    }
  }
  attr {
    key: "_output_shapes"
    value {
      list {
        shape {
          dim {
            size: 10
          }
        }
      }
    }
  }
  attr {
    key: "use_locking"
    value {
      b: true
    }
  }
  attr {
    key: "validate_shape"
    value {
      b: true
    }
  }
}
node {
  name: "save/Assign_18"
  op: "Assign"
  input: "train_op_layer/output_layer/fully_connected/biases/Adam_1"
  input: "save/RestoreV2:18"
  attr {
    key: "T"
    value {
      type: DT_FLOAT
    }
  }
  attr {
    key: "_class"
    value {
      list {
        s: "loc:@output_layer/fully_connected/biases"
      }
    }
  }
  attr {
    key: "_output_shapes"
    value {
      list {
        shape {
          dim {
            size: 10
          }
        }
      }
    }
  }
  attr {
    key: "use_locking"
    value {
      b: true
    }
  }
  attr {
    key: "validate_shape"
    value {
      b: true
    }
  }
}
node {
  name: "save/Assign_19"
  op: "Assign"
  input: "train_op_layer/output_layer/fully_connected/weights/Adam"
  input: "save/RestoreV2:19"
  attr {
    key: "T"
    value {
      type: DT_FLOAT
    }
  }
  attr {
    key: "_class"
    value {
      list {
        s: "loc:@output_layer/fully_connected/weights"
      }
    }
  }
  attr {
    key: "_output_shapes"
    value {
      list {
        shape {
          dim {
            size: 128
          }
          dim {
            size: 10
          }
        }
      }
    }
  }
  attr {
    key: "use_locking"
    value {
      b: true
    }
  }
  attr {
    key: "validate_shape"
    value {
      b: true
    }
  }
}
node {
  name: "save/Assign_20"
  op: "Assign"
  input: "train_op_layer/output_layer/fully_connected/weights/Adam_1"
  input: "save/RestoreV2:20"
  attr {
    key: "T"
    value {
      type: DT_FLOAT
    }
  }
  attr {
    key: "_class"
    value {
      list {
        s: "loc:@output_layer/fully_connected/weights"
      }
    }
  }
  attr {
    key: "_output_shapes"
    value {
      list {
        shape {
          dim {
            size: 128
          }
          dim {
            size: 10
          }
        }
      }
    }
  }
  attr {
    key: "use_locking"
    value {
      b: true
    }
  }
  attr {
    key: "validate_shape"
    value {
      b: true
    }
  }
}
node {
  name: "save/restore_all"
  op: "NoOp"
  input: "^save/Assign"
  input: "^save/Assign_1"
  input: "^save/Assign_10"
  input: "^save/Assign_11"
  input: "^save/Assign_12"
  input: "^save/Assign_13"
  input: "^save/Assign_14"
  input: "^save/Assign_15"
  input: "^save/Assign_16"
  input: "^save/Assign_17"
  input: "^save/Assign_18"
  input: "^save/Assign_19"
  input: "^save/Assign_2"
  input: "^save/Assign_20"
  input: "^save/Assign_3"
  input: "^save/Assign_4"
  input: "^save/Assign_5"
  input: "^save/Assign_6"
  input: "^save/Assign_7"
  input: "^save/Assign_8"
  input: "^save/Assign_9"
}
node {
  name: "report_uninitialized_variables/IsVariableInitialized"
  op: "IsVariableInitialized"
  input: "global_step"
  attr {
    key: "_class"
    value {
      list {
        s: "loc:@global_step"
      }
    }
  }
  attr {
    key: "_output_shapes"
    value {
      list {
        shape {
        }
      }
    }
  }
  attr {
    key: "dtype"
    value {
      type: DT_INT64
    }
  }
}
node {
  name: "report_uninitialized_variables/IsVariableInitialized_1"
  op: "IsVariableInitialized"
  input: "lstm_layer/rnn/multi_rnn_cell/cell_0/gru_cell/gates/kernel"
  attr {
    key: "_class"
    value {
      list {
        s: "loc:@lstm_layer/rnn/multi_rnn_cell/cell_0/gru_cell/gates/kernel"
      }
    }
  }
  attr {
    key: "_output_shapes"
    value {
      list {
        shape {
        }
      }
    }
  }
  attr {
    key: "dtype"
    value {
      type: DT_FLOAT
    }
  }
}
node {
  name: "report_uninitialized_variables/IsVariableInitialized_2"
  op: "IsVariableInitialized"
  input: "lstm_layer/rnn/multi_rnn_cell/cell_0/gru_cell/gates/bias"
  attr {
    key: "_class"
    value {
      list {
        s: "loc:@lstm_layer/rnn/multi_rnn_cell/cell_0/gru_cell/gates/bias"
      }
    }
  }
  attr {
    key: "_output_shapes"
    value {
      list {
        shape {
        }
      }
    }
  }
  attr {
    key: "dtype"
    value {
      type: DT_FLOAT
    }
  }
}
node {
  name: "report_uninitialized_variables/IsVariableInitialized_3"
  op: "IsVariableInitialized"
  input: "lstm_layer/rnn/multi_rnn_cell/cell_0/gru_cell/candidate/kernel"
  attr {
    key: "_class"
    value {
      list {
        s: "loc:@lstm_layer/rnn/multi_rnn_cell/cell_0/gru_cell/candidate/kernel"
      }
    }
  }
  attr {
    key: "_output_shapes"
    value {
      list {
        shape {
        }
      }
    }
  }
  attr {
    key: "dtype"
    value {
      type: DT_FLOAT
    }
  }
}
node {
  name: "report_uninitialized_variables/IsVariableInitialized_4"
  op: "IsVariableInitialized"
  input: "lstm_layer/rnn/multi_rnn_cell/cell_0/gru_cell/candidate/bias"
  attr {
    key: "_class"
    value {
      list {
        s: "loc:@lstm_layer/rnn/multi_rnn_cell/cell_0/gru_cell/candidate/bias"
      }
    }
  }
  attr {
    key: "_output_shapes"
    value {
      list {
        shape {
        }
      }
    }
  }
  attr {
    key: "dtype"
    value {
      type: DT_FLOAT
    }
  }
}
node {
  name: "report_uninitialized_variables/IsVariableInitialized_5"
  op: "IsVariableInitialized"
  input: "output_layer/fully_connected/weights"
  attr {
    key: "_class"
    value {
      list {
        s: "loc:@output_layer/fully_connected/weights"
      }
    }
  }
  attr {
    key: "_output_shapes"
    value {
      list {
        shape {
        }
      }
    }
  }
  attr {
    key: "dtype"
    value {
      type: DT_FLOAT
    }
  }
}
node {
  name: "report_uninitialized_variables/IsVariableInitialized_6"
  op: "IsVariableInitialized"
  input: "output_layer/fully_connected/biases"
  attr {
    key: "_class"
    value {
      list {
        s: "loc:@output_layer/fully_connected/biases"
      }
    }
  }
  attr {
    key: "_output_shapes"
    value {
      list {
        shape {
        }
      }
    }
  }
  attr {
    key: "dtype"
    value {
      type: DT_FLOAT
    }
  }
}
node {
  name: "report_uninitialized_variables/IsVariableInitialized_7"
  op: "IsVariableInitialized"
  input: "train_op_layer/beta1_power"
  attr {
    key: "_class"
    value {
      list {
        s: "loc:@lstm_layer/rnn/multi_rnn_cell/cell_0/gru_cell/candidate/bias"
      }
    }
  }
  attr {
    key: "_output_shapes"
    value {
      list {
        shape {
        }
      }
    }
  }
  attr {
    key: "dtype"
    value {
      type: DT_FLOAT
    }
  }
}
node {
  name: "report_uninitialized_variables/IsVariableInitialized_8"
  op: "IsVariableInitialized"
  input: "train_op_layer/beta2_power"
  attr {
    key: "_class"
    value {
      list {
        s: "loc:@lstm_layer/rnn/multi_rnn_cell/cell_0/gru_cell/candidate/bias"
      }
    }
  }
  attr {
    key: "_output_shapes"
    value {
      list {
        shape {
        }
      }
    }
  }
  attr {
    key: "dtype"
    value {
      type: DT_FLOAT
    }
  }
}
node {
  name: "report_uninitialized_variables/IsVariableInitialized_9"
  op: "IsVariableInitialized"
  input: "train_op_layer/lstm_layer/rnn/multi_rnn_cell/cell_0/gru_cell/gates/kernel/Adam"
  attr {
    key: "_class"
    value {
      list {
        s: "loc:@lstm_layer/rnn/multi_rnn_cell/cell_0/gru_cell/gates/kernel"
      }
    }
  }
  attr {
    key: "_output_shapes"
    value {
      list {
        shape {
        }
      }
    }
  }
  attr {
    key: "dtype"
    value {
      type: DT_FLOAT
    }
  }
}
node {
  name: "report_uninitialized_variables/IsVariableInitialized_10"
  op: "IsVariableInitialized"
  input: "train_op_layer/lstm_layer/rnn/multi_rnn_cell/cell_0/gru_cell/gates/kernel/Adam_1"
  attr {
    key: "_class"
    value {
      list {
        s: "loc:@lstm_layer/rnn/multi_rnn_cell/cell_0/gru_cell/gates/kernel"
      }
    }
  }
  attr {
    key: "_output_shapes"
    value {
      list {
        shape {
        }
      }
    }
  }
  attr {
    key: "dtype"
    value {
      type: DT_FLOAT
    }
  }
}
node {
  name: "report_uninitialized_variables/IsVariableInitialized_11"
  op: "IsVariableInitialized"
  input: "train_op_layer/lstm_layer/rnn/multi_rnn_cell/cell_0/gru_cell/gates/bias/Adam"
  attr {
    key: "_class"
    value {
      list {
        s: "loc:@lstm_layer/rnn/multi_rnn_cell/cell_0/gru_cell/gates/bias"
      }
    }
  }
  attr {
    key: "_output_shapes"
    value {
      list {
        shape {
        }
      }
    }
  }
  attr {
    key: "dtype"
    value {
      type: DT_FLOAT
    }
  }
}
node {
  name: "report_uninitialized_variables/IsVariableInitialized_12"
  op: "IsVariableInitialized"
  input: "train_op_layer/lstm_layer/rnn/multi_rnn_cell/cell_0/gru_cell/gates/bias/Adam_1"
  attr {
    key: "_class"
    value {
      list {
        s: "loc:@lstm_layer/rnn/multi_rnn_cell/cell_0/gru_cell/gates/bias"
      }
    }
  }
  attr {
    key: "_output_shapes"
    value {
      list {
        shape {
        }
      }
    }
  }
  attr {
    key: "dtype"
    value {
      type: DT_FLOAT
    }
  }
}
node {
  name: "report_uninitialized_variables/IsVariableInitialized_13"
  op: "IsVariableInitialized"
  input: "train_op_layer/lstm_layer/rnn/multi_rnn_cell/cell_0/gru_cell/candidate/kernel/Adam"
  attr {
    key: "_class"
    value {
      list {
        s: "loc:@lstm_layer/rnn/multi_rnn_cell/cell_0/gru_cell/candidate/kernel"
      }
    }
  }
  attr {
    key: "_output_shapes"
    value {
      list {
        shape {
        }
      }
    }
  }
  attr {
    key: "dtype"
    value {
      type: DT_FLOAT
    }
  }
}
node {
  name: "report_uninitialized_variables/IsVariableInitialized_14"
  op: "IsVariableInitialized"
  input: "train_op_layer/lstm_layer/rnn/multi_rnn_cell/cell_0/gru_cell/candidate/kernel/Adam_1"
  attr {
    key: "_class"
    value {
      list {
        s: "loc:@lstm_layer/rnn/multi_rnn_cell/cell_0/gru_cell/candidate/kernel"
      }
    }
  }
  attr {
    key: "_output_shapes"
    value {
      list {
        shape {
        }
      }
    }
  }
  attr {
    key: "dtype"
    value {
      type: DT_FLOAT
    }
  }
}
node {
  name: "report_uninitialized_variables/IsVariableInitialized_15"
  op: "IsVariableInitialized"
  input: "train_op_layer/lstm_layer/rnn/multi_rnn_cell/cell_0/gru_cell/candidate/bias/Adam"
  attr {
    key: "_class"
    value {
      list {
        s: "loc:@lstm_layer/rnn/multi_rnn_cell/cell_0/gru_cell/candidate/bias"
      }
    }
  }
  attr {
    key: "_output_shapes"
    value {
      list {
        shape {
        }
      }
    }
  }
  attr {
    key: "dtype"
    value {
      type: DT_FLOAT
    }
  }
}
node {
  name: "report_uninitialized_variables/IsVariableInitialized_16"
  op: "IsVariableInitialized"
  input: "train_op_layer/lstm_layer/rnn/multi_rnn_cell/cell_0/gru_cell/candidate/bias/Adam_1"
  attr {
    key: "_class"
    value {
      list {
        s: "loc:@lstm_layer/rnn/multi_rnn_cell/cell_0/gru_cell/candidate/bias"
      }
    }
  }
  attr {
    key: "_output_shapes"
    value {
      list {
        shape {
        }
      }
    }
  }
  attr {
    key: "dtype"
    value {
      type: DT_FLOAT
    }
  }
}
node {
  name: "report_uninitialized_variables/IsVariableInitialized_17"
  op: "IsVariableInitialized"
  input: "train_op_layer/output_layer/fully_connected/weights/Adam"
  attr {
    key: "_class"
    value {
      list {
        s: "loc:@output_layer/fully_connected/weights"
      }
    }
  }
  attr {
    key: "_output_shapes"
    value {
      list {
        shape {
        }
      }
    }
  }
  attr {
    key: "dtype"
    value {
      type: DT_FLOAT
    }
  }
}
node {
  name: "report_uninitialized_variables/IsVariableInitialized_18"
  op: "IsVariableInitialized"
  input: "train_op_layer/output_layer/fully_connected/weights/Adam_1"
  attr {
    key: "_class"
    value {
      list {
        s: "loc:@output_layer/fully_connected/weights"
      }
    }
  }
  attr {
    key: "_output_shapes"
    value {
      list {
        shape {
        }
      }
    }
  }
  attr {
    key: "dtype"
    value {
      type: DT_FLOAT
    }
  }
}
node {
  name: "report_uninitialized_variables/IsVariableInitialized_19"
  op: "IsVariableInitialized"
  input: "train_op_layer/output_layer/fully_connected/biases/Adam"
  attr {
    key: "_class"
    value {
      list {
        s: "loc:@output_layer/fully_connected/biases"
      }
    }
  }
  attr {
    key: "_output_shapes"
    value {
      list {
        shape {
        }
      }
    }
  }
  attr {
    key: "dtype"
    value {
      type: DT_FLOAT
    }
  }
}
node {
  name: "report_uninitialized_variables/IsVariableInitialized_20"
  op: "IsVariableInitialized"
  input: "train_op_layer/output_layer/fully_connected/biases/Adam_1"
  attr {
    key: "_class"
    value {
      list {
        s: "loc:@output_layer/fully_connected/biases"
      }
    }
  }
  attr {
    key: "_output_shapes"
    value {
      list {
        shape {
        }
      }
    }
  }
  attr {
    key: "dtype"
    value {
      type: DT_FLOAT
    }
  }
}
node {
  name: "report_uninitialized_variables/stack"
  op: "Pack"
  input: "report_uninitialized_variables/IsVariableInitialized"
  input: "report_uninitialized_variables/IsVariableInitialized_1"
  input: "report_uninitialized_variables/IsVariableInitialized_2"
  input: "report_uninitialized_variables/IsVariableInitialized_3"
  input: "report_uninitialized_variables/IsVariableInitialized_4"
  input: "report_uninitialized_variables/IsVariableInitialized_5"
  input: "report_uninitialized_variables/IsVariableInitialized_6"
  input: "report_uninitialized_variables/IsVariableInitialized_7"
  input: "report_uninitialized_variables/IsVariableInitialized_8"
  input: "report_uninitialized_variables/IsVariableInitialized_9"
  input: "report_uninitialized_variables/IsVariableInitialized_10"
  input: "report_uninitialized_variables/IsVariableInitialized_11"
  input: "report_uninitialized_variables/IsVariableInitialized_12"
  input: "report_uninitialized_variables/IsVariableInitialized_13"
  input: "report_uninitialized_variables/IsVariableInitialized_14"
  input: "report_uninitialized_variables/IsVariableInitialized_15"
  input: "report_uninitialized_variables/IsVariableInitialized_16"
  input: "report_uninitialized_variables/IsVariableInitialized_17"
  input: "report_uninitialized_variables/IsVariableInitialized_18"
  input: "report_uninitialized_variables/IsVariableInitialized_19"
  input: "report_uninitialized_variables/IsVariableInitialized_20"
  device: "/device:CPU:0"
  attr {
    key: "N"
    value {
      i: 21
    }
  }
  attr {
    key: "T"
    value {
      type: DT_BOOL
    }
  }
  attr {
    key: "_output_shapes"
    value {
      list {
        shape {
          dim {
            size: 21
          }
        }
      }
    }
  }
  attr {
    key: "axis"
    value {
      i: 0
    }
  }
}
node {
  name: "report_uninitialized_variables/LogicalNot"
  op: "LogicalNot"
  input: "report_uninitialized_variables/stack"
  device: "/device:CPU:0"
  attr {
    key: "_output_shapes"
    value {
      list {
        shape {
          dim {
            size: 21
          }
        }
      }
    }
  }
}
node {
  name: "report_uninitialized_variables/Const"
  op: "Const"
  device: "/device:CPU:0"
  attr {
    key: "_output_shapes"
    value {
      list {
        shape {
          dim {
            size: 21
          }
        }
      }
    }
  }
  attr {
    key: "dtype"
    value {
      type: DT_STRING
    }
  }
  attr {
    key: "value"
    value {
      tensor {
        dtype: DT_STRING
        tensor_shape {
          dim {
            size: 21
          }
        }
        string_val: "global_step"
        string_val: "lstm_layer/rnn/multi_rnn_cell/cell_0/gru_cell/gates/kernel"
        string_val: "lstm_layer/rnn/multi_rnn_cell/cell_0/gru_cell/gates/bias"
        string_val: "lstm_layer/rnn/multi_rnn_cell/cell_0/gru_cell/candidate/kernel"
        string_val: "lstm_layer/rnn/multi_rnn_cell/cell_0/gru_cell/candidate/bias"
        string_val: "output_layer/fully_connected/weights"
        string_val: "output_layer/fully_connected/biases"
        string_val: "train_op_layer/beta1_power"
        string_val: "train_op_layer/beta2_power"
        string_val: "train_op_layer/lstm_layer/rnn/multi_rnn_cell/cell_0/gru_cell/gates/kernel/Adam"
        string_val: "train_op_layer/lstm_layer/rnn/multi_rnn_cell/cell_0/gru_cell/gates/kernel/Adam_1"
        string_val: "train_op_layer/lstm_layer/rnn/multi_rnn_cell/cell_0/gru_cell/gates/bias/Adam"
        string_val: "train_op_layer/lstm_layer/rnn/multi_rnn_cell/cell_0/gru_cell/gates/bias/Adam_1"
        string_val: "train_op_layer/lstm_layer/rnn/multi_rnn_cell/cell_0/gru_cell/candidate/kernel/Adam"
        string_val: "train_op_layer/lstm_layer/rnn/multi_rnn_cell/cell_0/gru_cell/candidate/kernel/Adam_1"
        string_val: "train_op_layer/lstm_layer/rnn/multi_rnn_cell/cell_0/gru_cell/candidate/bias/Adam"
        string_val: "train_op_layer/lstm_layer/rnn/multi_rnn_cell/cell_0/gru_cell/candidate/bias/Adam_1"
        string_val: "train_op_layer/output_layer/fully_connected/weights/Adam"
        string_val: "train_op_layer/output_layer/fully_connected/weights/Adam_1"
        string_val: "train_op_layer/output_layer/fully_connected/biases/Adam"
        string_val: "train_op_layer/output_layer/fully_connected/biases/Adam_1"
      }
    }
  }
}
node {
  name: "report_uninitialized_variables/boolean_mask/Shape"
  op: "Const"
  device: "/device:CPU:0"
  attr {
    key: "_output_shapes"
    value {
      list {
        shape {
          dim {
            size: 1
          }
        }
      }
    }
  }
  attr {
    key: "dtype"
    value {
      type: DT_INT32
    }
  }
  attr {
    key: "value"
    value {
      tensor {
        dtype: DT_INT32
        tensor_shape {
          dim {
            size: 1
          }
        }
        int_val: 21
      }
    }
  }
}
node {
  name: "report_uninitialized_variables/boolean_mask/strided_slice/stack"
  op: "Const"
  device: "/device:CPU:0"
  attr {
    key: "_output_shapes"
    value {
      list {
        shape {
          dim {
            size: 1
          }
        }
      }
    }
  }
  attr {
    key: "dtype"
    value {
      type: DT_INT32
    }
  }
  attr {
    key: "value"
    value {
      tensor {
        dtype: DT_INT32
        tensor_shape {
          dim {
            size: 1
          }
        }
        int_val: 0
      }
    }
  }
}
node {
  name: "report_uninitialized_variables/boolean_mask/strided_slice/stack_1"
  op: "Const"
  device: "/device:CPU:0"
  attr {
    key: "_output_shapes"
    value {
      list {
        shape {
          dim {
            size: 1
          }
        }
      }
    }
  }
  attr {
    key: "dtype"
    value {
      type: DT_INT32
    }
  }
  attr {
    key: "value"
    value {
      tensor {
        dtype: DT_INT32
        tensor_shape {
          dim {
            size: 1
          }
        }
        int_val: 1
      }
    }
  }
}
node {
  name: "report_uninitialized_variables/boolean_mask/strided_slice/stack_2"
  op: "Const"
  device: "/device:CPU:0"
  attr {
    key: "_output_shapes"
    value {
      list {
        shape {
          dim {
            size: 1
          }
        }
      }
    }
  }
  attr {
    key: "dtype"
    value {
      type: DT_INT32
    }
  }
  attr {
    key: "value"
    value {
      tensor {
        dtype: DT_INT32
        tensor_shape {
          dim {
            size: 1
          }
        }
        int_val: 1
      }
    }
  }
}
node {
  name: "report_uninitialized_variables/boolean_mask/strided_slice"
  op: "StridedSlice"
  input: "report_uninitialized_variables/boolean_mask/Shape"
  input: "report_uninitialized_variables/boolean_mask/strided_slice/stack"
  input: "report_uninitialized_variables/boolean_mask/strided_slice/stack_1"
  input: "report_uninitialized_variables/boolean_mask/strided_slice/stack_2"
  device: "/device:CPU:0"
  attr {
    key: "Index"
    value {
      type: DT_INT32
    }
  }
  attr {
    key: "T"
    value {
      type: DT_INT32
    }
  }
  attr {
    key: "_output_shapes"
    value {
      list {
        shape {
          dim {
            size: 1
          }
        }
      }
    }
  }
  attr {
    key: "begin_mask"
    value {
      i: 0
    }
  }
  attr {
    key: "ellipsis_mask"
    value {
      i: 0
    }
  }
  attr {
    key: "end_mask"
    value {
      i: 0
    }
  }
  attr {
    key: "new_axis_mask"
    value {
      i: 0
    }
  }
  attr {
    key: "shrink_axis_mask"
    value {
      i: 0
    }
  }
}
node {
  name: "report_uninitialized_variables/boolean_mask/Prod/reduction_indices"
  op: "Const"
  device: "/device:CPU:0"
  attr {
    key: "_output_shapes"
    value {
      list {
        shape {
          dim {
            size: 1
          }
        }
      }
    }
  }
  attr {
    key: "dtype"
    value {
      type: DT_INT32
    }
  }
  attr {
    key: "value"
    value {
      tensor {
        dtype: DT_INT32
        tensor_shape {
          dim {
            size: 1
          }
        }
        int_val: 0
      }
    }
  }
}
node {
  name: "report_uninitialized_variables/boolean_mask/Prod"
  op: "Prod"
  input: "report_uninitialized_variables/boolean_mask/strided_slice"
  input: "report_uninitialized_variables/boolean_mask/Prod/reduction_indices"
  device: "/device:CPU:0"
  attr {
    key: "T"
    value {
      type: DT_INT32
    }
  }
  attr {
    key: "Tidx"
    value {
      type: DT_INT32
    }
  }
  attr {
    key: "_output_shapes"
    value {
      list {
        shape {
        }
      }
    }
  }
  attr {
    key: "keep_dims"
    value {
      b: false
    }
  }
}
node {
  name: "report_uninitialized_variables/boolean_mask/Shape_1"
  op: "Const"
  device: "/device:CPU:0"
  attr {
    key: "_output_shapes"
    value {
      list {
        shape {
          dim {
            size: 1
          }
        }
      }
    }
  }
  attr {
    key: "dtype"
    value {
      type: DT_INT32
    }
  }
  attr {
    key: "value"
    value {
      tensor {
        dtype: DT_INT32
        tensor_shape {
          dim {
            size: 1
          }
        }
        int_val: 21
      }
    }
  }
}
node {
  name: "report_uninitialized_variables/boolean_mask/strided_slice_1/stack"
  op: "Const"
  device: "/device:CPU:0"
  attr {
    key: "_output_shapes"
    value {
      list {
        shape {
          dim {
            size: 1
          }
        }
      }
    }
  }
  attr {
    key: "dtype"
    value {
      type: DT_INT32
    }
  }
  attr {
    key: "value"
    value {
      tensor {
        dtype: DT_INT32
        tensor_shape {
          dim {
            size: 1
          }
        }
        int_val: 0
      }
    }
  }
}
node {
  name: "report_uninitialized_variables/boolean_mask/strided_slice_1/stack_1"
  op: "Const"
  device: "/device:CPU:0"
  attr {
    key: "_output_shapes"
    value {
      list {
        shape {
          dim {
            size: 1
          }
        }
      }
    }
  }
  attr {
    key: "dtype"
    value {
      type: DT_INT32
    }
  }
  attr {
    key: "value"
    value {
      tensor {
        dtype: DT_INT32
        tensor_shape {
          dim {
            size: 1
          }
        }
        int_val: 0
      }
    }
  }
}
node {
  name: "report_uninitialized_variables/boolean_mask/strided_slice_1/stack_2"
  op: "Const"
  device: "/device:CPU:0"
  attr {
    key: "_output_shapes"
    value {
      list {
        shape {
          dim {
            size: 1
          }
        }
      }
    }
  }
  attr {
    key: "dtype"
    value {
      type: DT_INT32
    }
  }
  attr {
    key: "value"
    value {
      tensor {
        dtype: DT_INT32
        tensor_shape {
          dim {
            size: 1
          }
        }
        int_val: 1
      }
    }
  }
}
node {
  name: "report_uninitialized_variables/boolean_mask/strided_slice_1"
  op: "StridedSlice"
  input: "report_uninitialized_variables/boolean_mask/Shape_1"
  input: "report_uninitialized_variables/boolean_mask/strided_slice_1/stack"
  input: "report_uninitialized_variables/boolean_mask/strided_slice_1/stack_1"
  input: "report_uninitialized_variables/boolean_mask/strided_slice_1/stack_2"
  device: "/device:CPU:0"
  attr {
    key: "Index"
    value {
      type: DT_INT32
    }
  }
  attr {
    key: "T"
    value {
      type: DT_INT32
    }
  }
  attr {
    key: "_output_shapes"
    value {
      list {
        shape {
          dim {
          }
        }
      }
    }
  }
  attr {
    key: "begin_mask"
    value {
      i: 1
    }
  }
  attr {
    key: "ellipsis_mask"
    value {
      i: 0
    }
  }
  attr {
    key: "end_mask"
    value {
      i: 0
    }
  }
  attr {
    key: "new_axis_mask"
    value {
      i: 0
    }
  }
  attr {
    key: "shrink_axis_mask"
    value {
      i: 0
    }
  }
}
node {
  name: "report_uninitialized_variables/boolean_mask/Shape_2"
  op: "Const"
  device: "/device:CPU:0"
  attr {
    key: "_output_shapes"
    value {
      list {
        shape {
          dim {
            size: 1
          }
        }
      }
    }
  }
  attr {
    key: "dtype"
    value {
      type: DT_INT32
    }
  }
  attr {
    key: "value"
    value {
      tensor {
        dtype: DT_INT32
        tensor_shape {
          dim {
            size: 1
          }
        }
        int_val: 21
      }
    }
  }
}
node {
  name: "report_uninitialized_variables/boolean_mask/strided_slice_2/stack"
  op: "Const"
  device: "/device:CPU:0"
  attr {
    key: "_output_shapes"
    value {
      list {
        shape {
          dim {
            size: 1
          }
        }
      }
    }
  }
  attr {
    key: "dtype"
    value {
      type: DT_INT32
    }
  }
  attr {
    key: "value"
    value {
      tensor {
        dtype: DT_INT32
        tensor_shape {
          dim {
            size: 1
          }
        }
        int_val: 1
      }
    }
  }
}
node {
  name: "report_uninitialized_variables/boolean_mask/strided_slice_2/stack_1"
  op: "Const"
  device: "/device:CPU:0"
  attr {
    key: "_output_shapes"
    value {
      list {
        shape {
          dim {
            size: 1
          }
        }
      }
    }
  }
  attr {
    key: "dtype"
    value {
      type: DT_INT32
    }
  }
  attr {
    key: "value"
    value {
      tensor {
        dtype: DT_INT32
        tensor_shape {
          dim {
            size: 1
          }
        }
        int_val: 0
      }
    }
  }
}
node {
  name: "report_uninitialized_variables/boolean_mask/strided_slice_2/stack_2"
  op: "Const"
  device: "/device:CPU:0"
  attr {
    key: "_output_shapes"
    value {
      list {
        shape {
          dim {
            size: 1
          }
        }
      }
    }
  }
  attr {
    key: "dtype"
    value {
      type: DT_INT32
    }
  }
  attr {
    key: "value"
    value {
      tensor {
        dtype: DT_INT32
        tensor_shape {
          dim {
            size: 1
          }
        }
        int_val: 1
      }
    }
  }
}
node {
  name: "report_uninitialized_variables/boolean_mask/strided_slice_2"
  op: "StridedSlice"
  input: "report_uninitialized_variables/boolean_mask/Shape_2"
  input: "report_uninitialized_variables/boolean_mask/strided_slice_2/stack"
  input: "report_uninitialized_variables/boolean_mask/strided_slice_2/stack_1"
  input: "report_uninitialized_variables/boolean_mask/strided_slice_2/stack_2"
  device: "/device:CPU:0"
  attr {
    key: "Index"
    value {
      type: DT_INT32
    }
  }
  attr {
    key: "T"
    value {
      type: DT_INT32
    }
  }
  attr {
    key: "_output_shapes"
    value {
      list {
        shape {
          dim {
          }
        }
      }
    }
  }
  attr {
    key: "begin_mask"
    value {
      i: 0
    }
  }
  attr {
    key: "ellipsis_mask"
    value {
      i: 0
    }
  }
  attr {
    key: "end_mask"
    value {
      i: 1
    }
  }
  attr {
    key: "new_axis_mask"
    value {
      i: 0
    }
  }
  attr {
    key: "shrink_axis_mask"
    value {
      i: 0
    }
  }
}
node {
  name: "report_uninitialized_variables/boolean_mask/concat/values_1"
  op: "Pack"
  input: "report_uninitialized_variables/boolean_mask/Prod"
  device: "/device:CPU:0"
  attr {
    key: "N"
    value {
      i: 1
    }
  }
  attr {
    key: "T"
    value {
      type: DT_INT32
    }
  }
  attr {
    key: "_output_shapes"
    value {
      list {
        shape {
          dim {
            size: 1
          }
        }
      }
    }
  }
  attr {
    key: "axis"
    value {
      i: 0
    }
  }
}
node {
  name: "report_uninitialized_variables/boolean_mask/concat/axis"
  op: "Const"
  device: "/device:CPU:0"
  attr {
    key: "_output_shapes"
    value {
      list {
        shape {
        }
      }
    }
  }
  attr {
    key: "dtype"
    value {
      type: DT_INT32
    }
  }
  attr {
    key: "value"
    value {
      tensor {
        dtype: DT_INT32
        tensor_shape {
        }
        int_val: 0
      }
    }
  }
}
node {
  name: "report_uninitialized_variables/boolean_mask/concat"
  op: "ConcatV2"
  input: "report_uninitialized_variables/boolean_mask/strided_slice_1"
  input: "report_uninitialized_variables/boolean_mask/concat/values_1"
  input: "report_uninitialized_variables/boolean_mask/strided_slice_2"
  input: "report_uninitialized_variables/boolean_mask/concat/axis"
  device: "/device:CPU:0"
  attr {
    key: "N"
    value {
      i: 3
    }
  }
  attr {
    key: "T"
    value {
      type: DT_INT32
    }
  }
  attr {
    key: "Tidx"
    value {
      type: DT_INT32
    }
  }
  attr {
    key: "_output_shapes"
    value {
      list {
        shape {
          dim {
            size: 1
          }
        }
      }
    }
  }
}
node {
  name: "report_uninitialized_variables/boolean_mask/Reshape"
  op: "Reshape"
  input: "report_uninitialized_variables/Const"
  input: "report_uninitialized_variables/boolean_mask/concat"
  device: "/device:CPU:0"
  attr {
    key: "T"
    value {
      type: DT_STRING
    }
  }
  attr {
    key: "Tshape"
    value {
      type: DT_INT32
    }
  }
  attr {
    key: "_output_shapes"
    value {
      list {
        shape {
          dim {
            size: 21
          }
        }
      }
    }
  }
}
node {
  name: "report_uninitialized_variables/boolean_mask/Reshape_1/shape"
  op: "Const"
  device: "/device:CPU:0"
  attr {
    key: "_output_shapes"
    value {
      list {
        shape {
          dim {
            size: 1
          }
        }
      }
    }
  }
  attr {
    key: "dtype"
    value {
      type: DT_INT32
    }
  }
  attr {
    key: "value"
    value {
      tensor {
        dtype: DT_INT32
        tensor_shape {
          dim {
            size: 1
          }
        }
        int_val: -1
      }
    }
  }
}
node {
  name: "report_uninitialized_variables/boolean_mask/Reshape_1"
  op: "Reshape"
  input: "report_uninitialized_variables/LogicalNot"
  input: "report_uninitialized_variables/boolean_mask/Reshape_1/shape"
  device: "/device:CPU:0"
  attr {
    key: "T"
    value {
      type: DT_BOOL
    }
  }
  attr {
    key: "Tshape"
    value {
      type: DT_INT32
    }
  }
  attr {
    key: "_output_shapes"
    value {
      list {
        shape {
          dim {
            size: 21
          }
        }
      }
    }
  }
}
node {
  name: "report_uninitialized_variables/boolean_mask/Where"
  op: "Where"
  input: "report_uninitialized_variables/boolean_mask/Reshape_1"
  device: "/device:CPU:0"
  attr {
    key: "T"
    value {
      type: DT_BOOL
    }
  }
  attr {
    key: "_output_shapes"
    value {
      list {
        shape {
          dim {
            size: -1
          }
          dim {
            size: 1
          }
        }
      }
    }
  }
}
node {
  name: "report_uninitialized_variables/boolean_mask/Squeeze"
  op: "Squeeze"
  input: "report_uninitialized_variables/boolean_mask/Where"
  device: "/device:CPU:0"
  attr {
    key: "T"
    value {
      type: DT_INT64
    }
  }
  attr {
    key: "_output_shapes"
    value {
      list {
        shape {
          dim {
            size: -1
          }
        }
      }
    }
  }
  attr {
    key: "squeeze_dims"
    value {
      list {
        i: 1
      }
    }
  }
}
node {
  name: "report_uninitialized_variables/boolean_mask/GatherV2/axis"
  op: "Const"
  device: "/device:CPU:0"
  attr {
    key: "_output_shapes"
    value {
      list {
        shape {
        }
      }
    }
  }
  attr {
    key: "dtype"
    value {
      type: DT_INT32
    }
  }
  attr {
    key: "value"
    value {
      tensor {
        dtype: DT_INT32
        tensor_shape {
        }
        int_val: 0
      }
    }
  }
}
node {
  name: "report_uninitialized_variables/boolean_mask/GatherV2"
  op: "GatherV2"
  input: "report_uninitialized_variables/boolean_mask/Reshape"
  input: "report_uninitialized_variables/boolean_mask/Squeeze"
  input: "report_uninitialized_variables/boolean_mask/GatherV2/axis"
  device: "/device:CPU:0"
  attr {
    key: "Taxis"
    value {
      type: DT_INT32
    }
  }
  attr {
    key: "Tindices"
    value {
      type: DT_INT64
    }
  }
  attr {
    key: "Tparams"
    value {
      type: DT_STRING
    }
  }
  attr {
    key: "_output_shapes"
    value {
      list {
        shape {
          dim {
            size: -1
          }
        }
      }
    }
  }
}
node {
  name: "init"
  op: "NoOp"
  input: "^global_step/Assign"
  input: "^lstm_layer/rnn/multi_rnn_cell/cell_0/gru_cell/candidate/bias/Assign"
  input: "^lstm_layer/rnn/multi_rnn_cell/cell_0/gru_cell/candidate/kernel/Assign"
  input: "^lstm_layer/rnn/multi_rnn_cell/cell_0/gru_cell/gates/bias/Assign"
  input: "^lstm_layer/rnn/multi_rnn_cell/cell_0/gru_cell/gates/kernel/Assign"
  input: "^output_layer/fully_connected/biases/Assign"
  input: "^output_layer/fully_connected/weights/Assign"
  input: "^train_op_layer/beta1_power/Assign"
  input: "^train_op_layer/beta2_power/Assign"
  input: "^train_op_layer/lstm_layer/rnn/multi_rnn_cell/cell_0/gru_cell/candidate/bias/Adam/Assign"
  input: "^train_op_layer/lstm_layer/rnn/multi_rnn_cell/cell_0/gru_cell/candidate/bias/Adam_1/Assign"
  input: "^train_op_layer/lstm_layer/rnn/multi_rnn_cell/cell_0/gru_cell/candidate/kernel/Adam/Assign"
  input: "^train_op_layer/lstm_layer/rnn/multi_rnn_cell/cell_0/gru_cell/candidate/kernel/Adam_1/Assign"
  input: "^train_op_layer/lstm_layer/rnn/multi_rnn_cell/cell_0/gru_cell/gates/bias/Adam/Assign"
  input: "^train_op_layer/lstm_layer/rnn/multi_rnn_cell/cell_0/gru_cell/gates/bias/Adam_1/Assign"
  input: "^train_op_layer/lstm_layer/rnn/multi_rnn_cell/cell_0/gru_cell/gates/kernel/Adam/Assign"
  input: "^train_op_layer/lstm_layer/rnn/multi_rnn_cell/cell_0/gru_cell/gates/kernel/Adam_1/Assign"
  input: "^train_op_layer/output_layer/fully_connected/biases/Adam/Assign"
  input: "^train_op_layer/output_layer/fully_connected/biases/Adam_1/Assign"
  input: "^train_op_layer/output_layer/fully_connected/weights/Adam/Assign"
  input: "^train_op_layer/output_layer/fully_connected/weights/Adam_1/Assign"
}
node {
  name: "init_1"
  op: "NoOp"
}
node {
  name: "init_all_tables"
  op: "NoOp"
}
node {
  name: "group_deps"
  op: "NoOp"
  input: "^init_1"
  input: "^init_all_tables"
}
versions {
  producer: 27
}
